version 1.0;

extension tract_registry pulse;
extension tract_registry tract_core;

fragment scan_body_1(
    c: tensor<scalar>,
    r: tensor<scalar>,
    c_final_extracted_fastlstm1_four_parts_W_k_0_256_sliced_m_0_256: tensor<scalar>,
    c_final_extracted_fastlstm1_four_parts_W_sliced_m_512_768_k_0_256: tensor<scalar>,
    c_final_extracted_fastlstm1_four_parts_W_k_0_256_sliced_m_256_512: tensor<scalar>,
    c_final_extracted_fastlstm1_four_parts_W_k_0_256_sliced_m_768_1024: tensor<scalar>,
    four_parts_W_k_256_384_sliced_m_0_256_a: tensor<scalar>,
    four_parts_W_k_256_384_sliced_m_256_512_a: tensor<scalar>,
    four_parts_W_k_256_384_sliced_m_768_1024_a: tensor<scalar>,
    four_parts_W_sliced_m_512_768_k_256_384_a: tensor<scalar>,
    four_parts_sliced_0_256_a: tensor<scalar>,
    four_parts_sliced_256_512_a: tensor<scalar>,
    four_parts_sliced_512_768_a: tensor<scalar>,
    four_parts_sliced_768_1024_a: tensor<scalar>,
    h_new_W_sliced_m_0_128_a: tensor<scalar>,
    h_new_sliced_0_128_a: tensor<scalar>,
    peephole0_mul_a: tensor<scalar>,
    peephole1_mul_a: tensor<scalar>,
    peephole2_mul_a: tensor<scalar>
) -> (c_new: tensor<scalar>, h_new_sliced_0_128: tensor<scalar>, m: tensor<scalar>)
{
  peephole0_mul = mul(peephole0_mul_a, c);
  four_parts_W_k_256_384_sliced_m_0_256 = matmul(r, four_parts_W_k_256_384_sliced_m_0_256_a, transposeA = false, transposeB = false);
  four_parts_W_k_add_0_slice_1_0__256 = add(c_final_extracted_fastlstm1_four_parts_W_k_0_256_sliced_m_0_256, four_parts_W_k_256_384_sliced_m_0_256);
  four_parts_sliced_0_256 = add(four_parts_sliced_0_256_a, four_parts_W_k_add_0_slice_1_0__256);
  peephole0_output = add(peephole0_mul, four_parts_sliced_0_256);
  peephole0_output_nolin = sigmoid(peephole0_output);
  four_parts_W_sliced_m_512_768_k_256_384 = matmul(r, four_parts_W_sliced_m_512_768_k_256_384_a, transposeA = false, transposeB = false);
  four_parts_W_sliced_m_512_768_k_add_0 = add(c_final_extracted_fastlstm1_four_parts_W_sliced_m_512_768_k_0_256, four_parts_W_sliced_m_512_768_k_256_384);
  four_parts_sliced_512_768 = add(four_parts_sliced_512_768_a, four_parts_W_sliced_m_512_768_k_add_0);
  four_parts_j_nolin = tanh(four_parts_sliced_512_768);
  c_update = mul(peephole0_output_nolin, four_parts_j_nolin);
  peephole1_mul = mul(peephole1_mul_a, c);
  four_parts_W_k_256_384_sliced_m_256_512 = matmul(r, four_parts_W_k_256_384_sliced_m_256_512_a, transposeA = false, transposeB = false);
  four_parts_W_k_add_0_slice_1_256__512 = add(c_final_extracted_fastlstm1_four_parts_W_k_0_256_sliced_m_256_512, four_parts_W_k_256_384_sliced_m_256_512);
  four_parts_sliced_256_512 = add(four_parts_sliced_256_512_a, four_parts_W_k_add_0_slice_1_256__512);
  peephole1_output = add(peephole1_mul, four_parts_sliced_256_512);
  peephole1_output_nolin = sigmoid(peephole1_output);
  c_prop = mul(peephole1_output_nolin, c);
  c_new = add(c_update, c_prop);
  tanh_c = tanh(c_new);
  peephole2_mul = mul(peephole2_mul_a, c_new);
  four_parts_W_k_256_384_sliced_m_768_1024 = matmul(r, four_parts_W_k_256_384_sliced_m_768_1024_a, transposeA = false, transposeB = false);
  four_parts_W_k_add_0_slice_1_768__1024 = add(c_final_extracted_fastlstm1_four_parts_W_k_0_256_sliced_m_768_1024, four_parts_W_k_256_384_sliced_m_768_1024);
  four_parts_sliced_768_1024 = add(four_parts_sliced_768_1024_a, four_parts_W_k_add_0_slice_1_768__1024);
  peephole2_output = add(peephole2_mul, four_parts_sliced_768_1024);
  peephole2_output_nolin = sigmoid(peephole2_output);
  m = mul(tanh_c, peephole2_output_nolin);
  h_new_W_sliced_m_0_128 = matmul(m, h_new_W_sliced_m_0_128_a, transposeA = false, transposeB = false);
  h_new_sliced_0_128 = add(h_new_sliced_0_128_a, h_new_W_sliced_m_0_128);
}

fragment scan_body_2(
    c: tensor<scalar>,
    r: tensor<scalar>,
    c_final_extracted_fastlstm2_four_parts_W_k_0_256_sliced_m_0_256: tensor<scalar>,
    c_final_extracted_fastlstm2_four_parts_W_sliced_m_512_768_k_0_256: tensor<scalar>,
    c_final_extracted_fastlstm2_four_parts_W_k_0_256_sliced_m_256_512: tensor<scalar>,
    c_final_extracted_fastlstm2_four_parts_W_k_0_256_sliced_m_768_1024: tensor<scalar>,
    four_parts_W_k_256_384_sliced_m_0_256_a: tensor<scalar>,
    four_parts_W_k_256_384_sliced_m_256_512_a: tensor<scalar>,
    four_parts_W_k_256_384_sliced_m_768_1024_a: tensor<scalar>,
    four_parts_W_sliced_m_512_768_k_256_384_a: tensor<scalar>,
    four_parts_sliced_0_256_a: tensor<scalar>,
    four_parts_sliced_256_512_a: tensor<scalar>,
    four_parts_sliced_512_768_a: tensor<scalar>,
    four_parts_sliced_768_1024_a: tensor<scalar>,
    h_new_W_sliced_m_0_128_a: tensor<scalar>,
    h_new_sliced_0_128_a: tensor<scalar>,
    peephole0_mul_a: tensor<scalar>,
    peephole1_mul_a: tensor<scalar>,
    peephole2_mul_a: tensor<scalar>
) -> (c_new: tensor<scalar>, h_new_sliced_0_128: tensor<scalar>, m: tensor<scalar>)
{
  peephole0_mul = mul(peephole0_mul_a, c);
  four_parts_W_k_256_384_sliced_m_0_256 = matmul(r, four_parts_W_k_256_384_sliced_m_0_256_a, transposeA = false, transposeB = false);
  four_parts_W_k_add_0_slice_1_0__256 = add(c_final_extracted_fastlstm2_four_parts_W_k_0_256_sliced_m_0_256, four_parts_W_k_256_384_sliced_m_0_256);
  four_parts_sliced_0_256 = add(four_parts_sliced_0_256_a, four_parts_W_k_add_0_slice_1_0__256);
  peephole0_output = add(peephole0_mul, four_parts_sliced_0_256);
  peephole0_output_nolin = sigmoid(peephole0_output);
  four_parts_W_sliced_m_512_768_k_256_384 = matmul(r, four_parts_W_sliced_m_512_768_k_256_384_a, transposeA = false, transposeB = false);
  four_parts_W_sliced_m_512_768_k_add_0 = add(c_final_extracted_fastlstm2_four_parts_W_sliced_m_512_768_k_0_256, four_parts_W_sliced_m_512_768_k_256_384);
  four_parts_sliced_512_768 = add(four_parts_sliced_512_768_a, four_parts_W_sliced_m_512_768_k_add_0);
  four_parts_j_nolin = tanh(four_parts_sliced_512_768);
  c_update = mul(peephole0_output_nolin, four_parts_j_nolin);
  peephole1_mul = mul(peephole1_mul_a, c);
  four_parts_W_k_256_384_sliced_m_256_512 = matmul(r, four_parts_W_k_256_384_sliced_m_256_512_a, transposeA = false, transposeB = false);
  four_parts_W_k_add_0_slice_1_256__512 = add(c_final_extracted_fastlstm2_four_parts_W_k_0_256_sliced_m_256_512, four_parts_W_k_256_384_sliced_m_256_512);
  four_parts_sliced_256_512 = add(four_parts_sliced_256_512_a, four_parts_W_k_add_0_slice_1_256__512);
  peephole1_output = add(peephole1_mul, four_parts_sliced_256_512);
  peephole1_output_nolin = sigmoid(peephole1_output);
  c_prop = mul(peephole1_output_nolin, c);
  c_new = add(c_update, c_prop);
  tanh_c = tanh(c_new);
  peephole2_mul = mul(peephole2_mul_a, c_new);
  four_parts_W_k_256_384_sliced_m_768_1024 = matmul(r, four_parts_W_k_256_384_sliced_m_768_1024_a, transposeA = false, transposeB = false);
  four_parts_W_k_add_0_slice_1_768__1024 = add(c_final_extracted_fastlstm2_four_parts_W_k_0_256_sliced_m_768_1024, four_parts_W_k_256_384_sliced_m_768_1024);
  four_parts_sliced_768_1024 = add(four_parts_sliced_768_1024_a, four_parts_W_k_add_0_slice_1_768__1024);
  peephole2_output = add(peephole2_mul, four_parts_sliced_768_1024);
  peephole2_output_nolin = sigmoid(peephole2_output);
  m = mul(tanh_c, peephole2_output_nolin);
  h_new_W_sliced_m_0_128 = matmul(m, h_new_W_sliced_m_0_128_a, transposeA = false, transposeB = false);
  h_new_sliced_0_128 = add(h_new_sliced_0_128_a, h_new_W_sliced_m_0_128);
}

fragment tract_conv_hwc_1d(
    input: tensor<scalar>,
    filter: tensor<scalar>,
    bias: tensor<scalar> = 0.0,
    border: string = "constant",
    padding: (integer, integer)[] = [],
    stride: integer[] = [],
    dilation: integer[] = [],
    groups: integer = 1
) -> (output: tensor<scalar>)
{
  nchw = transpose(unsqueeze(input, axes = [0]), axes = [0, 2, 1]);
  conv = conv(nchw, filter, bias, border = border, padding = padding, stride = stride, dilation = dilation, groups = groups);
  output = squeeze(transpose(conv, axes = [0, 2, 1]), axes = [0]);
}

fragment tract_core_properties(
) -> (properties: (string, tensor<scalar>)[])
{
  properties = [("pulse.delay", 6.0), ("tract_nnef_format_version", "alpha1")];
}

graph network( input ) -> ( output_affine_output ) {
  input = external(shape = [24, 40]);
  lda_output_delay = tract_pulse_delay(input, axis = 0, delay = 0, overlap = 4);
  lda_output_weigths = variable<scalar>(label = "lda.output_weigths", shape = [200, 40, 5]);
  lda_output_bias = variable<scalar>(label = "lda.output_bias", shape = [200]);
  lda_output = tract_conv_hwc_1d(lda_output_delay, lda_output_weigths, lda_output_bias, dilation = [1], stride = [1], border = "constant", groups = 1, padding = [(0, 0)]);
  tdnn1_affine_output_a = variable<scalar>(label = "tdnn1.affine.output_a", shape = [256, 200]);
  tdnn1_affine_output = matmul(lda_output, tdnn1_affine_output_a, transposeA = false, transposeB = true);
  tdnn1_affine_output_bias_a = variable<scalar>(label = "tdnn1.affine.output.bias-a", shape = [1, 256]);
  tdnn1_affine_output_bias = add(tdnn1_affine_output_bias_a, tdnn1_affine_output);
  tdnn1_relu_output_low = max(0.0, tdnn1_affine_output_bias);
  tdnn1_renorm_reduced_sq = square(tdnn1_relu_output_low);
  tdnn1_renorm_reduced_sum = sum_reduce(tdnn1_renorm_reduced_sq, axes = [1]);
  tdnn1_renorm_scaled = mul(0.00390625, tdnn1_renorm_reduced_sum);
  tdnn1_renorm_output_recip = rsqrt(tdnn1_renorm_scaled);
  tdnn1_renorm_output = mul(tdnn1_relu_output_low, tdnn1_renorm_output_recip);
  tdnn2_affine_output_delay = tract_pulse_delay(tdnn1_renorm_output, axis = 0, delay = 0, overlap = 2);
  tdnn2_affine_output_weigths = variable<scalar>(label = "tdnn2.affine.output_weigths", shape = [256, 256, 3]);
  tdnn2_affine_output_bias = variable<scalar>(label = "tdnn2.affine.output_bias", shape = [256]);
  tdnn2_affine_output = tract_conv_hwc_1d(tdnn2_affine_output_delay, tdnn2_affine_output_weigths, tdnn2_affine_output_bias, dilation = [1], stride = [1], border = "constant", groups = 1, padding = [(0, 0)]);
  tdnn2_relu_output_low = max(0.0, tdnn2_affine_output);
  tdnn2_renorm_reduced_sq = square(tdnn2_relu_output_low);
  tdnn2_renorm_reduced_sum = sum_reduce(tdnn2_renorm_reduced_sq, axes = [1]);
  tdnn2_renorm_scaled = mul(0.00390625, tdnn2_renorm_reduced_sum);
  tdnn2_renorm_output_recip = rsqrt(tdnn2_renorm_scaled);
  tdnn2_renorm_output = mul(tdnn2_relu_output_low, tdnn2_renorm_output_recip);
  tdnn3_affine_output_delay = tract_pulse_delay(tdnn2_renorm_output, axis = 0, delay = 0, overlap = 0);
  tdnn3_affine_output_weigths = variable<scalar>(label = "tdnn3.affine.output_weigths", shape = [256, 256, 3]);
  tdnn3_affine_output_bias = variable<scalar>(label = "tdnn3.affine.output_bias", shape = [256]);
  tdnn3_affine_output = tract_conv_hwc_1d(tdnn3_affine_output_delay, tdnn3_affine_output_weigths, tdnn3_affine_output_bias, dilation = [1], stride = [3], border = "constant", groups = 1, padding = [(0, 0)]);
  tdnn3_relu_output_low = max(0.0, tdnn3_affine_output);
  tdnn3_renorm_reduced_sq = square(tdnn3_relu_output_low);
  tdnn3_renorm_reduced_sum = sum_reduce(tdnn3_renorm_reduced_sq, axes = [1]);
  tdnn3_renorm_scaled = mul(0.00390625, tdnn3_renorm_reduced_sum);
  tdnn3_renorm_output_recip = rsqrt(tdnn3_renorm_scaled);
  tdnn3_renorm_output = mul(tdnn3_relu_output_low, tdnn3_renorm_output_recip);
  fastlstm1_c_final_extracted_fastlstm1_four_parts_W_k_0_256_sliced_m_0_256_a = variable<scalar>(label = "fastlstm1.c_final.extracted.fastlstm1.four_parts.W.k-0-256.sliced-m-0-256_a", shape = [256, 256]);
  fastlstm1_c_final_extracted_fastlstm1_four_parts_W_k_0_256_sliced_m_0_256 = matmul(tdnn3_renorm_output, fastlstm1_c_final_extracted_fastlstm1_four_parts_W_k_0_256_sliced_m_0_256_a, transposeA = false, transposeB = false);
  fastlstm1_c_final_extracted_fastlstm1_four_parts_W_sliced_m_512_768_k_0_256_a = variable<scalar>(label = "fastlstm1.c_final.extracted.fastlstm1.four_parts.W.sliced-m-512-768.k-0-256_a", shape = [256, 256]);
  fastlstm1_c_final_extracted_fastlstm1_four_parts_W_sliced_m_512_768_k_0_256 = matmul(tdnn3_renorm_output, fastlstm1_c_final_extracted_fastlstm1_four_parts_W_sliced_m_512_768_k_0_256_a, transposeA = false, transposeB = false);
  fastlstm1_c_final_extracted_fastlstm1_four_parts_W_k_0_256_sliced_m_256_512_a = variable<scalar>(label = "fastlstm1.c_final.extracted.fastlstm1.four_parts.W.k-0-256.sliced-m-256-512_a", shape = [256, 256]);
  fastlstm1_c_final_extracted_fastlstm1_four_parts_W_k_0_256_sliced_m_256_512 = matmul(tdnn3_renorm_output, fastlstm1_c_final_extracted_fastlstm1_four_parts_W_k_0_256_sliced_m_256_512_a, transposeA = false, transposeB = false);
  fastlstm1_c_final_extracted_fastlstm1_four_parts_W_k_0_256_sliced_m_768_1024_a = variable<scalar>(label = "fastlstm1.c_final.extracted.fastlstm1.four_parts.W.k-0-256.sliced-m-768-1024_a", shape = [256, 256]);
  fastlstm1_c_final_extracted_fastlstm1_four_parts_W_k_0_256_sliced_m_768_1024 = matmul(tdnn3_renorm_output, fastlstm1_c_final_extracted_fastlstm1_four_parts_W_k_0_256_sliced_m_768_1024_a, transposeA = false, transposeB = false);
  fastlstm1_c_final_state_init_0 = variable<scalar>(label = "fastlstm1.c_final_state_init_0", shape = [1, 256]);
  fastlstm1_c_final_state_init_1 = variable<scalar>(label = "fastlstm1.c_final_state_init_1", shape = [1, 128]);
  fastlstm1_four_parts_W_k_256_384_sliced_m_0_256_a = variable<scalar>(label = "fastlstm1.four_parts.W.k-256-384.sliced-m-0-256_a", shape = [128, 256]);
  fastlstm1_four_parts_W_k_256_384_sliced_m_256_512_a = variable<scalar>(label = "fastlstm1.four_parts.W.k-256-384.sliced-m-256-512_a", shape = [128, 256]);
  fastlstm1_four_parts_W_k_256_384_sliced_m_768_1024_a = variable<scalar>(label = "fastlstm1.four_parts.W.k-256-384.sliced-m-768-1024_a", shape = [128, 256]);
  fastlstm1_four_parts_W_sliced_m_512_768_k_256_384_a = variable<scalar>(label = "fastlstm1.four_parts.W.sliced-m-512-768.k-256-384_a", shape = [128, 256]);
  fastlstm1_four_parts_sliced_0_256_a = variable<scalar>(label = "fastlstm1.four_parts.sliced-0-256-a", shape = [1, 256]);
  fastlstm1_four_parts_sliced_256_512_a = variable<scalar>(label = "fastlstm1.four_parts.sliced-256-512-a", shape = [1, 256]);
  fastlstm1_four_parts_sliced_512_768_a = variable<scalar>(label = "fastlstm1.four_parts.sliced-512-768-a", shape = [1, 256]);
  fastlstm1_four_parts_sliced_768_1024_a = variable<scalar>(label = "fastlstm1.four_parts.sliced-768-1024-a", shape = [1, 256]);
  fastlstm1_h_new_W_sliced_m_0_128_a = variable<scalar>(label = "fastlstm1.h_new.W.sliced-m-0-128_a", shape = [256, 128]);
  fastlstm1_h_new_sliced_0_128_a = variable<scalar>(label = "fastlstm1.h_new.sliced-0-128-a", shape = [1, 128]);
  fastlstm1_peephole0_mul_a = variable<scalar>(label = "fastlstm1.peephole0.mul-a", shape = [1, 256]);
  fastlstm1_peephole1_mul_a = variable<scalar>(label = "fastlstm1.peephole1.mul-a", shape = [1, 256]);
  fastlstm1_peephole2_mul_a = variable<scalar>(label = "fastlstm1.peephole2.mul-a", shape = [1, 256]);
  fastlstm1_c_final = tract_core_scan(body = "scan_body_1", scan = [("c_final_extracted_fastlstm1_four_parts_W_k_0_256_sliced_m_0_256", fastlstm1_c_final_extracted_fastlstm1_four_parts_W_k_0_256_sliced_m_0_256, 0, 1), ("c_final_extracted_fastlstm1_four_parts_W_sliced_m_512_768_k_0_256", fastlstm1_c_final_extracted_fastlstm1_four_parts_W_sliced_m_512_768_k_0_256, 0, 1), ("c_final_extracted_fastlstm1_four_parts_W_k_0_256_sliced_m_256_512", fastlstm1_c_final_extracted_fastlstm1_four_parts_W_k_0_256_sliced_m_256_512, 0, 1), ("c_final_extracted_fastlstm1_four_parts_W_k_0_256_sliced_m_768_1024", fastlstm1_c_final_extracted_fastlstm1_four_parts_W_k_0_256_sliced_m_768_1024, 0, 1)], full = [("four_parts_W_k_256_384_sliced_m_0_256_a", fastlstm1_four_parts_W_k_256_384_sliced_m_0_256_a), ("four_parts_W_k_256_384_sliced_m_256_512_a", fastlstm1_four_parts_W_k_256_384_sliced_m_256_512_a), ("four_parts_W_k_256_384_sliced_m_768_1024_a", fastlstm1_four_parts_W_k_256_384_sliced_m_768_1024_a), ("four_parts_W_sliced_m_512_768_k_256_384_a", fastlstm1_four_parts_W_sliced_m_512_768_k_256_384_a), ("four_parts_sliced_0_256_a", fastlstm1_four_parts_sliced_0_256_a), ("four_parts_sliced_256_512_a", fastlstm1_four_parts_sliced_256_512_a), ("four_parts_sliced_512_768_a", fastlstm1_four_parts_sliced_512_768_a), ("four_parts_sliced_768_1024_a", fastlstm1_four_parts_sliced_768_1024_a), ("h_new_W_sliced_m_0_128_a", fastlstm1_h_new_W_sliced_m_0_128_a), ("h_new_sliced_0_128_a", fastlstm1_h_new_sliced_0_128_a), ("peephole0_mul_a", fastlstm1_peephole0_mul_a), ("peephole1_mul_a", fastlstm1_peephole1_mul_a), ("peephole2_mul_a", fastlstm1_peephole2_mul_a)], state = [("c", fastlstm1_c_final_state_init_0, "c_new"), ("r", fastlstm1_c_final_state_init_1, "h_new_sliced_0_128")], output = [("m", "full", 0)], skip = 2);
  fastlstm1_h_new_W_a = variable<scalar>(label = "fastlstm1.h_new.W_a", shape = [256, 256]);
  fastlstm1_h_new_W = matmul(fastlstm1_c_final, fastlstm1_h_new_W_a, transposeA = false, transposeB = false);
  fastlstm1_h_new_a = variable<scalar>(label = "fastlstm1.h_new-a", shape = [1, 256]);
  fastlstm1_h_new = add(fastlstm1_h_new_a, fastlstm1_h_new_W);
  tdnn4_affine_output_delay = tract_pulse_delay(fastlstm1_h_new, axis = 0, delay = 0, overlap = 2);
  tdnn4_affine_output_weigths = variable<scalar>(label = "tdnn4.affine.output_weigths", shape = [256, 256, 3]);
  tdnn4_affine_output_bias = variable<scalar>(label = "tdnn4.affine.output_bias", shape = [256]);
  tdnn4_affine_output = tract_conv_hwc_1d(tdnn4_affine_output_delay, tdnn4_affine_output_weigths, tdnn4_affine_output_bias, dilation = [1], stride = [1], border = "constant", groups = 1, padding = [(0, 0)]);
  tdnn4_relu_output_low = max(0.0, tdnn4_affine_output);
  tdnn4_renorm_reduced_sq = square(tdnn4_relu_output_low);
  tdnn4_renorm_reduced_sum = sum_reduce(tdnn4_renorm_reduced_sq, axes = [1]);
  tdnn4_renorm_scaled = mul(0.00390625, tdnn4_renorm_reduced_sum);
  tdnn4_renorm_output_recip = rsqrt(tdnn4_renorm_scaled);
  tdnn4_renorm_output = mul(tdnn4_relu_output_low, tdnn4_renorm_output_recip);
  tdnn5_affine_output_delay = tract_pulse_delay(tdnn4_renorm_output, axis = 0, delay = 0, overlap = 2);
  tdnn5_affine_output_weigths = variable<scalar>(label = "tdnn5.affine.output_weigths", shape = [256, 256, 3]);
  tdnn5_affine_output_bias = variable<scalar>(label = "tdnn5.affine.output_bias", shape = [256]);
  tdnn5_affine_output = tract_conv_hwc_1d(tdnn5_affine_output_delay, tdnn5_affine_output_weigths, tdnn5_affine_output_bias, dilation = [1], stride = [1], border = "constant", groups = 1, padding = [(0, 0)]);
  tdnn5_relu_output_low = max(0.0, tdnn5_affine_output);
  tdnn5_renorm_reduced_sq = square(tdnn5_relu_output_low);
  tdnn5_renorm_reduced_sum = sum_reduce(tdnn5_renorm_reduced_sq, axes = [1]);
  tdnn5_renorm_scaled = mul(0.00390625, tdnn5_renorm_reduced_sum);
  tdnn5_renorm_output_recip = rsqrt(tdnn5_renorm_scaled);
  tdnn5_renorm_output = mul(tdnn5_relu_output_low, tdnn5_renorm_output_recip);
  fastlstm2_c_final_extracted_fastlstm2_four_parts_W_k_0_256_sliced_m_0_256_a = variable<scalar>(label = "fastlstm2.c_final.extracted.fastlstm2.four_parts.W.k-0-256.sliced-m-0-256_a", shape = [256, 256]);
  fastlstm2_c_final_extracted_fastlstm2_four_parts_W_k_0_256_sliced_m_0_256 = matmul(tdnn5_renorm_output, fastlstm2_c_final_extracted_fastlstm2_four_parts_W_k_0_256_sliced_m_0_256_a, transposeA = false, transposeB = false);
  fastlstm2_c_final_extracted_fastlstm2_four_parts_W_sliced_m_512_768_k_0_256_a = variable<scalar>(label = "fastlstm2.c_final.extracted.fastlstm2.four_parts.W.sliced-m-512-768.k-0-256_a", shape = [256, 256]);
  fastlstm2_c_final_extracted_fastlstm2_four_parts_W_sliced_m_512_768_k_0_256 = matmul(tdnn5_renorm_output, fastlstm2_c_final_extracted_fastlstm2_four_parts_W_sliced_m_512_768_k_0_256_a, transposeA = false, transposeB = false);
  fastlstm2_c_final_extracted_fastlstm2_four_parts_W_k_0_256_sliced_m_256_512_a = variable<scalar>(label = "fastlstm2.c_final.extracted.fastlstm2.four_parts.W.k-0-256.sliced-m-256-512_a", shape = [256, 256]);
  fastlstm2_c_final_extracted_fastlstm2_four_parts_W_k_0_256_sliced_m_256_512 = matmul(tdnn5_renorm_output, fastlstm2_c_final_extracted_fastlstm2_four_parts_W_k_0_256_sliced_m_256_512_a, transposeA = false, transposeB = false);
  fastlstm2_c_final_extracted_fastlstm2_four_parts_W_k_0_256_sliced_m_768_1024_a = variable<scalar>(label = "fastlstm2.c_final.extracted.fastlstm2.four_parts.W.k-0-256.sliced-m-768-1024_a", shape = [256, 256]);
  fastlstm2_c_final_extracted_fastlstm2_four_parts_W_k_0_256_sliced_m_768_1024 = matmul(tdnn5_renorm_output, fastlstm2_c_final_extracted_fastlstm2_four_parts_W_k_0_256_sliced_m_768_1024_a, transposeA = false, transposeB = false);
  fastlstm2_c_final_state_init_0 = variable<scalar>(label = "fastlstm2.c_final_state_init_0", shape = [1, 256]);
  fastlstm2_c_final_state_init_1 = variable<scalar>(label = "fastlstm2.c_final_state_init_1", shape = [1, 128]);
  fastlstm2_four_parts_W_k_256_384_sliced_m_0_256_a = variable<scalar>(label = "fastlstm2.four_parts.W.k-256-384.sliced-m-0-256_a", shape = [128, 256]);
  fastlstm2_four_parts_W_k_256_384_sliced_m_256_512_a = variable<scalar>(label = "fastlstm2.four_parts.W.k-256-384.sliced-m-256-512_a", shape = [128, 256]);
  fastlstm2_four_parts_W_k_256_384_sliced_m_768_1024_a = variable<scalar>(label = "fastlstm2.four_parts.W.k-256-384.sliced-m-768-1024_a", shape = [128, 256]);
  fastlstm2_four_parts_W_sliced_m_512_768_k_256_384_a = variable<scalar>(label = "fastlstm2.four_parts.W.sliced-m-512-768.k-256-384_a", shape = [128, 256]);
  fastlstm2_four_parts_sliced_0_256_a = variable<scalar>(label = "fastlstm2.four_parts.sliced-0-256-a", shape = [1, 256]);
  fastlstm2_four_parts_sliced_256_512_a = variable<scalar>(label = "fastlstm2.four_parts.sliced-256-512-a", shape = [1, 256]);
  fastlstm2_four_parts_sliced_512_768_a = variable<scalar>(label = "fastlstm2.four_parts.sliced-512-768-a", shape = [1, 256]);
  fastlstm2_four_parts_sliced_768_1024_a = variable<scalar>(label = "fastlstm2.four_parts.sliced-768-1024-a", shape = [1, 256]);
  fastlstm2_h_new_W_sliced_m_0_128_a = variable<scalar>(label = "fastlstm2.h_new.W.sliced-m-0-128_a", shape = [256, 128]);
  fastlstm2_h_new_sliced_0_128_a = variable<scalar>(label = "fastlstm2.h_new.sliced-0-128-a", shape = [1, 128]);
  fastlstm2_peephole0_mul_a = variable<scalar>(label = "fastlstm2.peephole0.mul-a", shape = [1, 256]);
  fastlstm2_peephole1_mul_a = variable<scalar>(label = "fastlstm2.peephole1.mul-a", shape = [1, 256]);
  fastlstm2_peephole2_mul_a = variable<scalar>(label = "fastlstm2.peephole2.mul-a", shape = [1, 256]);
  fastlstm2_c_final = tract_core_scan(body = "scan_body_2", scan = [("c_final_extracted_fastlstm2_four_parts_W_k_0_256_sliced_m_0_256", fastlstm2_c_final_extracted_fastlstm2_four_parts_W_k_0_256_sliced_m_0_256, 0, 1), ("c_final_extracted_fastlstm2_four_parts_W_sliced_m_512_768_k_0_256", fastlstm2_c_final_extracted_fastlstm2_four_parts_W_sliced_m_512_768_k_0_256, 0, 1), ("c_final_extracted_fastlstm2_four_parts_W_k_0_256_sliced_m_256_512", fastlstm2_c_final_extracted_fastlstm2_four_parts_W_k_0_256_sliced_m_256_512, 0, 1), ("c_final_extracted_fastlstm2_four_parts_W_k_0_256_sliced_m_768_1024", fastlstm2_c_final_extracted_fastlstm2_four_parts_W_k_0_256_sliced_m_768_1024, 0, 1)], full = [("four_parts_W_k_256_384_sliced_m_0_256_a", fastlstm2_four_parts_W_k_256_384_sliced_m_0_256_a), ("four_parts_W_k_256_384_sliced_m_256_512_a", fastlstm2_four_parts_W_k_256_384_sliced_m_256_512_a), ("four_parts_W_k_256_384_sliced_m_768_1024_a", fastlstm2_four_parts_W_k_256_384_sliced_m_768_1024_a), ("four_parts_W_sliced_m_512_768_k_256_384_a", fastlstm2_four_parts_W_sliced_m_512_768_k_256_384_a), ("four_parts_sliced_0_256_a", fastlstm2_four_parts_sliced_0_256_a), ("four_parts_sliced_256_512_a", fastlstm2_four_parts_sliced_256_512_a), ("four_parts_sliced_512_768_a", fastlstm2_four_parts_sliced_512_768_a), ("four_parts_sliced_768_1024_a", fastlstm2_four_parts_sliced_768_1024_a), ("h_new_W_sliced_m_0_128_a", fastlstm2_h_new_W_sliced_m_0_128_a), ("h_new_sliced_0_128_a", fastlstm2_h_new_sliced_0_128_a), ("peephole0_mul_a", fastlstm2_peephole0_mul_a), ("peephole1_mul_a", fastlstm2_peephole1_mul_a), ("peephole2_mul_a", fastlstm2_peephole2_mul_a)], state = [("c", fastlstm2_c_final_state_init_0, "c_new"), ("r", fastlstm2_c_final_state_init_1, "h_new_sliced_0_128")], output = [("m", "full", 0)], skip = 6);
  fastlstm2_h_new_W_a = variable<scalar>(label = "fastlstm2.h_new.W_a", shape = [256, 256]);
  fastlstm2_h_new_W = matmul(fastlstm2_c_final, fastlstm2_h_new_W_a, transposeA = false, transposeB = false);
  fastlstm2_h_new_a = variable<scalar>(label = "fastlstm2.h_new-a", shape = [1, 256]);
  fastlstm2_h_new = add(fastlstm2_h_new_a, fastlstm2_h_new_W);
  output_affine_output_W_a = variable<scalar>(label = "output.affine.output.W_a", shape = [1690, 256]);
  output_affine_output_W = matmul(fastlstm2_h_new, output_affine_output_W_a, transposeA = false, transposeB = true);
  output_affine_output_a = variable<scalar>(label = "output.affine.output-a", shape = [1, 1690]);
  output_affine_output = add(output_affine_output_a, output_affine_output_W);
}
