version 1.0;

extension tract_registry pulse;

fragment tract_conv_hwc_1d(
    input: tensor<scalar>,
    filter: tensor<scalar>,
    bias: tensor<scalar> = 0.0,
    border: string = "constant",
    padding: (integer, integer)[] = [],
    stride: integer[] = [],
    dilation: integer[] = [],
    groups: integer = 1
) -> (output: tensor<scalar>)
{
  nchw = transpose(unsqueeze(input, axes = [0]), axes = [0, 2, 1]);
  conv = conv(nchw, filter, bias, border = border, padding = padding, stride = stride, dilation = dilation, groups = groups);
  output = squeeze(transpose(conv, axes = [0, 2, 1]), axes = [0]);
}

fragment tract_core_properties(
) -> (properties: (string, tensor<scalar>)[])
{
  properties = [("pulse.delay", 182.0), ("tract_nnef_format_version", "alpha1")];
}

graph wavenet_2( input_node ) -> ( post_proc_2_1x1_conv_conv1d_convolution_Conv2D ) {
  input_node = external(shape = [8, 20]);
  input_batch_normalisation_batchnorm_mul_a = variable<scalar>(label = "wavenet_2/input_batch_normalisation/batchnorm/mul-a", shape = [1, 20]);
  input_batch_normalisation_batchnorm_mul = mul(input_batch_normalisation_batchnorm_mul_a, input_node);
  input_batch_normalisation_batchnorm_add_1_a = variable<scalar>(label = "wavenet_2/input_batch_normalisation/batchnorm/add_1-a", shape = [1, 20]);
  input_batch_normalisation_batchnorm_add_1 = add(input_batch_normalisation_batchnorm_add_1_a, input_batch_normalisation_batchnorm_mul);
  pre_conv_conv1d_convolution_Conv2D_delay = tract_pulse_delay(input_batch_normalisation_batchnorm_add_1, axis = 0, delay = 0, overlap = 2);
  pre_conv_conv1d_convolution_Conv2D_weigths = variable<scalar>(label = "wavenet_2/pre_conv-conv1d/convolution/Conv2D_weigths", shape = [16, 20, 3]);
  pre_conv_conv1d_convolution_Conv2D = tract_conv_hwc_1d(pre_conv_conv1d_convolution_Conv2D_delay, pre_conv_conv1d_convolution_Conv2D_weigths, dilation = [1], stride = [1], border = "constant", groups = 1, padding = [(0, 0)]);
  dilation_layer_0_dilation_rate_1_filter_conv1d_convolution_Conv2D_delay = tract_pulse_delay(pre_conv_conv1d_convolution_Conv2D, axis = 0, delay = 0, overlap = 2);
  dilation_layer_0_dilation_rate_1_filter_conv1d_convolution_Conv2D_weigths = variable<scalar>(label = "wavenet_2/dilation_layer_0-dilation_rate_1-filter-conv1d/convolution/Conv2D_weigths", shape = [64, 16, 3]);
  dilation_layer_0_dilation_rate_1_filter_conv1d_convolution_Conv2D = tract_conv_hwc_1d(dilation_layer_0_dilation_rate_1_filter_conv1d_convolution_Conv2D_delay, dilation_layer_0_dilation_rate_1_filter_conv1d_convolution_Conv2D_weigths, dilation = [1], stride = [1], border = "constant", groups = 1, padding = [(0, 0)]);
  dilation_layer_0_dilation_rate_1_filter_conv1d_Tanh = tanh(dilation_layer_0_dilation_rate_1_filter_conv1d_convolution_Conv2D);
  dilation_layer_0_dilation_rate_1_gate_conv1d_convolution_Conv2D_weigths = variable<scalar>(label = "wavenet_2/dilation_layer_0-dilation_rate_1-gate-conv1d/convolution/Conv2D_weigths", shape = [64, 16, 3]);
  dilation_layer_0_dilation_rate_1_gate_conv1d_convolution_Conv2D = tract_conv_hwc_1d(dilation_layer_0_dilation_rate_1_filter_conv1d_convolution_Conv2D_delay, dilation_layer_0_dilation_rate_1_gate_conv1d_convolution_Conv2D_weigths, dilation = [1], stride = [1], border = "constant", groups = 1, padding = [(0, 0)]);
  dilation_layer_0_dilation_rate_1_gate_conv1d_Sigmoid = sigmoid(dilation_layer_0_dilation_rate_1_gate_conv1d_convolution_Conv2D);
  mul = mul(dilation_layer_0_dilation_rate_1_filter_conv1d_Tanh, dilation_layer_0_dilation_rate_1_gate_conv1d_Sigmoid);
  dilation_layer_0_dilation_rate_1_1x1_conv_skip_conv1d_convolution_Conv2D_a = variable<scalar>(label = "wavenet_2/dilation_layer_0-dilation_rate_1-1x1_conv_skip-conv1d/convolution/Conv2D_a", shape = [64, 32]);
  dilation_layer_0_dilation_rate_1_1x1_conv_skip_conv1d_convolution_Conv2D = matmul(mul, dilation_layer_0_dilation_rate_1_1x1_conv_skip_conv1d_convolution_Conv2D_a, transposeA = false, transposeB = false);
  dilation_layer_0_dilation_rate_1_1x1_conv_transform_conv1d_convolution_Conv2D_a = variable<scalar>(label = "wavenet_2/dilation_layer_0-dilation_rate_1-1x1_conv_transform-conv1d/convolution/Conv2D_a", shape = [64, 16]);
  dilation_layer_0_dilation_rate_1_1x1_conv_transform_conv1d_convolution_Conv2D = matmul(mul, dilation_layer_0_dilation_rate_1_1x1_conv_transform_conv1d_convolution_Conv2D_a, transposeA = false, transposeB = false);
  add = add(dilation_layer_0_dilation_rate_1_1x1_conv_transform_conv1d_convolution_Conv2D, pre_conv_conv1d_convolution_Conv2D);
  dilation_layer_1_dilation_rate_2_filter_conv1d_convolution_Conv2D_delay = tract_pulse_delay(add, axis = 0, delay = 0, overlap = 4);
  dilation_layer_1_dilation_rate_2_filter_conv1d_convolution_Conv2D_weigths = variable<scalar>(label = "wavenet_2/dilation_layer_1-dilation_rate_2-filter-conv1d/convolution/Conv2D_weigths", shape = [64, 16, 3]);
  dilation_layer_1_dilation_rate_2_filter_conv1d_convolution_Conv2D = tract_conv_hwc_1d(dilation_layer_1_dilation_rate_2_filter_conv1d_convolution_Conv2D_delay, dilation_layer_1_dilation_rate_2_filter_conv1d_convolution_Conv2D_weigths, dilation = [2], stride = [1], border = "constant", groups = 1, padding = [(0, 0)]);
  dilation_layer_1_dilation_rate_2_filter_conv1d_Tanh = tanh(dilation_layer_1_dilation_rate_2_filter_conv1d_convolution_Conv2D);
  dilation_layer_1_dilation_rate_2_gate_conv1d_convolution_Conv2D_weigths = variable<scalar>(label = "wavenet_2/dilation_layer_1-dilation_rate_2-gate-conv1d/convolution/Conv2D_weigths", shape = [64, 16, 3]);
  dilation_layer_1_dilation_rate_2_gate_conv1d_convolution_Conv2D = tract_conv_hwc_1d(dilation_layer_1_dilation_rate_2_filter_conv1d_convolution_Conv2D_delay, dilation_layer_1_dilation_rate_2_gate_conv1d_convolution_Conv2D_weigths, dilation = [2], stride = [1], border = "constant", groups = 1, padding = [(0, 0)]);
  dilation_layer_1_dilation_rate_2_gate_conv1d_Sigmoid = sigmoid(dilation_layer_1_dilation_rate_2_gate_conv1d_convolution_Conv2D);
  mul_1 = mul(dilation_layer_1_dilation_rate_2_filter_conv1d_Tanh, dilation_layer_1_dilation_rate_2_gate_conv1d_Sigmoid);
  dilation_layer_1_dilation_rate_2_1x1_conv_skip_conv1d_convolution_Conv2D_a = variable<scalar>(label = "wavenet_2/dilation_layer_1-dilation_rate_2-1x1_conv_skip-conv1d/convolution/Conv2D_a", shape = [64, 32]);
  dilation_layer_1_dilation_rate_2_1x1_conv_skip_conv1d_convolution_Conv2D = matmul(mul_1, dilation_layer_1_dilation_rate_2_1x1_conv_skip_conv1d_convolution_Conv2D_a, transposeA = false, transposeB = false);
  AddN_0 = add(dilation_layer_0_dilation_rate_1_1x1_conv_skip_conv1d_convolution_Conv2D, dilation_layer_1_dilation_rate_2_1x1_conv_skip_conv1d_convolution_Conv2D);
  dilation_layer_1_dilation_rate_2_1x1_conv_transform_conv1d_convolution_Conv2D_a = variable<scalar>(label = "wavenet_2/dilation_layer_1-dilation_rate_2-1x1_conv_transform-conv1d/convolution/Conv2D_a", shape = [64, 16]);
  dilation_layer_1_dilation_rate_2_1x1_conv_transform_conv1d_convolution_Conv2D = matmul(mul_1, dilation_layer_1_dilation_rate_2_1x1_conv_transform_conv1d_convolution_Conv2D_a, transposeA = false, transposeB = false);
  add_1 = add(dilation_layer_1_dilation_rate_2_1x1_conv_transform_conv1d_convolution_Conv2D, add);
  dilation_layer_2_dilation_rate_4_filter_conv1d_convolution_Conv2D_delay = tract_pulse_delay(add_1, axis = 0, delay = 0, overlap = 8);
  dilation_layer_2_dilation_rate_4_filter_conv1d_convolution_Conv2D_weigths = variable<scalar>(label = "wavenet_2/dilation_layer_2-dilation_rate_4-filter-conv1d/convolution/Conv2D_weigths", shape = [64, 16, 3]);
  dilation_layer_2_dilation_rate_4_filter_conv1d_convolution_Conv2D = tract_conv_hwc_1d(dilation_layer_2_dilation_rate_4_filter_conv1d_convolution_Conv2D_delay, dilation_layer_2_dilation_rate_4_filter_conv1d_convolution_Conv2D_weigths, dilation = [4], stride = [1], border = "constant", groups = 1, padding = [(0, 0)]);
  dilation_layer_2_dilation_rate_4_filter_conv1d_Tanh = tanh(dilation_layer_2_dilation_rate_4_filter_conv1d_convolution_Conv2D);
  dilation_layer_2_dilation_rate_4_gate_conv1d_convolution_Conv2D_weigths = variable<scalar>(label = "wavenet_2/dilation_layer_2-dilation_rate_4-gate-conv1d/convolution/Conv2D_weigths", shape = [64, 16, 3]);
  dilation_layer_2_dilation_rate_4_gate_conv1d_convolution_Conv2D = tract_conv_hwc_1d(dilation_layer_2_dilation_rate_4_filter_conv1d_convolution_Conv2D_delay, dilation_layer_2_dilation_rate_4_gate_conv1d_convolution_Conv2D_weigths, dilation = [4], stride = [1], border = "constant", groups = 1, padding = [(0, 0)]);
  dilation_layer_2_dilation_rate_4_gate_conv1d_Sigmoid = sigmoid(dilation_layer_2_dilation_rate_4_gate_conv1d_convolution_Conv2D);
  mul_2 = mul(dilation_layer_2_dilation_rate_4_filter_conv1d_Tanh, dilation_layer_2_dilation_rate_4_gate_conv1d_Sigmoid);
  dilation_layer_2_dilation_rate_4_1x1_conv_skip_conv1d_convolution_Conv2D_a = variable<scalar>(label = "wavenet_2/dilation_layer_2-dilation_rate_4-1x1_conv_skip-conv1d/convolution/Conv2D_a", shape = [64, 32]);
  dilation_layer_2_dilation_rate_4_1x1_conv_skip_conv1d_convolution_Conv2D = matmul(mul_2, dilation_layer_2_dilation_rate_4_1x1_conv_skip_conv1d_convolution_Conv2D_a, transposeA = false, transposeB = false);
  AddN_1 = add(AddN_0, dilation_layer_2_dilation_rate_4_1x1_conv_skip_conv1d_convolution_Conv2D);
  dilation_layer_2_dilation_rate_4_1x1_conv_transform_conv1d_convolution_Conv2D_a = variable<scalar>(label = "wavenet_2/dilation_layer_2-dilation_rate_4-1x1_conv_transform-conv1d/convolution/Conv2D_a", shape = [64, 16]);
  dilation_layer_2_dilation_rate_4_1x1_conv_transform_conv1d_convolution_Conv2D = matmul(mul_2, dilation_layer_2_dilation_rate_4_1x1_conv_transform_conv1d_convolution_Conv2D_a, transposeA = false, transposeB = false);
  add_2 = add(dilation_layer_2_dilation_rate_4_1x1_conv_transform_conv1d_convolution_Conv2D, add_1);
  dilation_layer_3_dilation_rate_8_filter_conv1d_convolution_Conv2D_delay = tract_pulse_delay(add_2, axis = 0, delay = 0, overlap = 16);
  dilation_layer_3_dilation_rate_8_filter_conv1d_convolution_Conv2D_weigths = variable<scalar>(label = "wavenet_2/dilation_layer_3-dilation_rate_8-filter-conv1d/convolution/Conv2D_weigths", shape = [64, 16, 3]);
  dilation_layer_3_dilation_rate_8_filter_conv1d_convolution_Conv2D = tract_conv_hwc_1d(dilation_layer_3_dilation_rate_8_filter_conv1d_convolution_Conv2D_delay, dilation_layer_3_dilation_rate_8_filter_conv1d_convolution_Conv2D_weigths, dilation = [8], stride = [1], border = "constant", groups = 1, padding = [(0, 0)]);
  dilation_layer_3_dilation_rate_8_filter_conv1d_Tanh = tanh(dilation_layer_3_dilation_rate_8_filter_conv1d_convolution_Conv2D);
  dilation_layer_3_dilation_rate_8_gate_conv1d_convolution_Conv2D_weigths = variable<scalar>(label = "wavenet_2/dilation_layer_3-dilation_rate_8-gate-conv1d/convolution/Conv2D_weigths", shape = [64, 16, 3]);
  dilation_layer_3_dilation_rate_8_gate_conv1d_convolution_Conv2D = tract_conv_hwc_1d(dilation_layer_3_dilation_rate_8_filter_conv1d_convolution_Conv2D_delay, dilation_layer_3_dilation_rate_8_gate_conv1d_convolution_Conv2D_weigths, dilation = [8], stride = [1], border = "constant", groups = 1, padding = [(0, 0)]);
  dilation_layer_3_dilation_rate_8_gate_conv1d_Sigmoid = sigmoid(dilation_layer_3_dilation_rate_8_gate_conv1d_convolution_Conv2D);
  mul_3 = mul(dilation_layer_3_dilation_rate_8_filter_conv1d_Tanh, dilation_layer_3_dilation_rate_8_gate_conv1d_Sigmoid);
  dilation_layer_3_dilation_rate_8_1x1_conv_skip_conv1d_convolution_Conv2D_a = variable<scalar>(label = "wavenet_2/dilation_layer_3-dilation_rate_8-1x1_conv_skip-conv1d/convolution/Conv2D_a", shape = [64, 32]);
  dilation_layer_3_dilation_rate_8_1x1_conv_skip_conv1d_convolution_Conv2D = matmul(mul_3, dilation_layer_3_dilation_rate_8_1x1_conv_skip_conv1d_convolution_Conv2D_a, transposeA = false, transposeB = false);
  AddN_2 = add(AddN_1, dilation_layer_3_dilation_rate_8_1x1_conv_skip_conv1d_convolution_Conv2D);
  dilation_layer_3_dilation_rate_8_1x1_conv_transform_conv1d_convolution_Conv2D_a = variable<scalar>(label = "wavenet_2/dilation_layer_3-dilation_rate_8-1x1_conv_transform-conv1d/convolution/Conv2D_a", shape = [64, 16]);
  dilation_layer_3_dilation_rate_8_1x1_conv_transform_conv1d_convolution_Conv2D = matmul(mul_3, dilation_layer_3_dilation_rate_8_1x1_conv_transform_conv1d_convolution_Conv2D_a, transposeA = false, transposeB = false);
  add_3 = add(dilation_layer_3_dilation_rate_8_1x1_conv_transform_conv1d_convolution_Conv2D, add_2);
  dilation_layer_4_dilation_rate_1_filter_conv1d_convolution_Conv2D_delay = tract_pulse_delay(add_3, axis = 0, delay = 0, overlap = 2);
  dilation_layer_4_dilation_rate_1_filter_conv1d_convolution_Conv2D_weigths = variable<scalar>(label = "wavenet_2/dilation_layer_4-dilation_rate_1-filter-conv1d/convolution/Conv2D_weigths", shape = [64, 16, 3]);
  dilation_layer_4_dilation_rate_1_filter_conv1d_convolution_Conv2D = tract_conv_hwc_1d(dilation_layer_4_dilation_rate_1_filter_conv1d_convolution_Conv2D_delay, dilation_layer_4_dilation_rate_1_filter_conv1d_convolution_Conv2D_weigths, dilation = [1], stride = [1], border = "constant", groups = 1, padding = [(0, 0)]);
  dilation_layer_4_dilation_rate_1_filter_conv1d_Tanh = tanh(dilation_layer_4_dilation_rate_1_filter_conv1d_convolution_Conv2D);
  dilation_layer_4_dilation_rate_1_gate_conv1d_convolution_Conv2D_weigths = variable<scalar>(label = "wavenet_2/dilation_layer_4-dilation_rate_1-gate-conv1d/convolution/Conv2D_weigths", shape = [64, 16, 3]);
  dilation_layer_4_dilation_rate_1_gate_conv1d_convolution_Conv2D = tract_conv_hwc_1d(dilation_layer_4_dilation_rate_1_filter_conv1d_convolution_Conv2D_delay, dilation_layer_4_dilation_rate_1_gate_conv1d_convolution_Conv2D_weigths, dilation = [1], stride = [1], border = "constant", groups = 1, padding = [(0, 0)]);
  dilation_layer_4_dilation_rate_1_gate_conv1d_Sigmoid = sigmoid(dilation_layer_4_dilation_rate_1_gate_conv1d_convolution_Conv2D);
  mul_4 = mul(dilation_layer_4_dilation_rate_1_filter_conv1d_Tanh, dilation_layer_4_dilation_rate_1_gate_conv1d_Sigmoid);
  dilation_layer_4_dilation_rate_1_1x1_conv_skip_conv1d_convolution_Conv2D_a = variable<scalar>(label = "wavenet_2/dilation_layer_4-dilation_rate_1-1x1_conv_skip-conv1d/convolution/Conv2D_a", shape = [64, 32]);
  dilation_layer_4_dilation_rate_1_1x1_conv_skip_conv1d_convolution_Conv2D = matmul(mul_4, dilation_layer_4_dilation_rate_1_1x1_conv_skip_conv1d_convolution_Conv2D_a, transposeA = false, transposeB = false);
  AddN_3 = add(AddN_2, dilation_layer_4_dilation_rate_1_1x1_conv_skip_conv1d_convolution_Conv2D);
  dilation_layer_4_dilation_rate_1_1x1_conv_transform_conv1d_convolution_Conv2D_a = variable<scalar>(label = "wavenet_2/dilation_layer_4-dilation_rate_1-1x1_conv_transform-conv1d/convolution/Conv2D_a", shape = [64, 16]);
  dilation_layer_4_dilation_rate_1_1x1_conv_transform_conv1d_convolution_Conv2D = matmul(mul_4, dilation_layer_4_dilation_rate_1_1x1_conv_transform_conv1d_convolution_Conv2D_a, transposeA = false, transposeB = false);
  add_4 = add(dilation_layer_4_dilation_rate_1_1x1_conv_transform_conv1d_convolution_Conv2D, add_3);
  dilation_layer_5_dilation_rate_2_filter_conv1d_convolution_Conv2D_delay = tract_pulse_delay(add_4, axis = 0, delay = 0, overlap = 4);
  dilation_layer_5_dilation_rate_2_filter_conv1d_convolution_Conv2D_weigths = variable<scalar>(label = "wavenet_2/dilation_layer_5-dilation_rate_2-filter-conv1d/convolution/Conv2D_weigths", shape = [64, 16, 3]);
  dilation_layer_5_dilation_rate_2_filter_conv1d_convolution_Conv2D = tract_conv_hwc_1d(dilation_layer_5_dilation_rate_2_filter_conv1d_convolution_Conv2D_delay, dilation_layer_5_dilation_rate_2_filter_conv1d_convolution_Conv2D_weigths, dilation = [2], stride = [1], border = "constant", groups = 1, padding = [(0, 0)]);
  dilation_layer_5_dilation_rate_2_filter_conv1d_Tanh = tanh(dilation_layer_5_dilation_rate_2_filter_conv1d_convolution_Conv2D);
  dilation_layer_5_dilation_rate_2_gate_conv1d_convolution_Conv2D_weigths = variable<scalar>(label = "wavenet_2/dilation_layer_5-dilation_rate_2-gate-conv1d/convolution/Conv2D_weigths", shape = [64, 16, 3]);
  dilation_layer_5_dilation_rate_2_gate_conv1d_convolution_Conv2D = tract_conv_hwc_1d(dilation_layer_5_dilation_rate_2_filter_conv1d_convolution_Conv2D_delay, dilation_layer_5_dilation_rate_2_gate_conv1d_convolution_Conv2D_weigths, dilation = [2], stride = [1], border = "constant", groups = 1, padding = [(0, 0)]);
  dilation_layer_5_dilation_rate_2_gate_conv1d_Sigmoid = sigmoid(dilation_layer_5_dilation_rate_2_gate_conv1d_convolution_Conv2D);
  mul_5 = mul(dilation_layer_5_dilation_rate_2_filter_conv1d_Tanh, dilation_layer_5_dilation_rate_2_gate_conv1d_Sigmoid);
  dilation_layer_5_dilation_rate_2_1x1_conv_skip_conv1d_convolution_Conv2D_a = variable<scalar>(label = "wavenet_2/dilation_layer_5-dilation_rate_2-1x1_conv_skip-conv1d/convolution/Conv2D_a", shape = [64, 32]);
  dilation_layer_5_dilation_rate_2_1x1_conv_skip_conv1d_convolution_Conv2D = matmul(mul_5, dilation_layer_5_dilation_rate_2_1x1_conv_skip_conv1d_convolution_Conv2D_a, transposeA = false, transposeB = false);
  AddN_4 = add(AddN_3, dilation_layer_5_dilation_rate_2_1x1_conv_skip_conv1d_convolution_Conv2D);
  dilation_layer_5_dilation_rate_2_1x1_conv_transform_conv1d_convolution_Conv2D_a = variable<scalar>(label = "wavenet_2/dilation_layer_5-dilation_rate_2-1x1_conv_transform-conv1d/convolution/Conv2D_a", shape = [64, 16]);
  dilation_layer_5_dilation_rate_2_1x1_conv_transform_conv1d_convolution_Conv2D = matmul(mul_5, dilation_layer_5_dilation_rate_2_1x1_conv_transform_conv1d_convolution_Conv2D_a, transposeA = false, transposeB = false);
  add_5 = add(dilation_layer_5_dilation_rate_2_1x1_conv_transform_conv1d_convolution_Conv2D, add_4);
  dilation_layer_6_dilation_rate_4_filter_conv1d_convolution_Conv2D_delay = tract_pulse_delay(add_5, axis = 0, delay = 0, overlap = 8);
  dilation_layer_6_dilation_rate_4_filter_conv1d_convolution_Conv2D_weigths = variable<scalar>(label = "wavenet_2/dilation_layer_6-dilation_rate_4-filter-conv1d/convolution/Conv2D_weigths", shape = [64, 16, 3]);
  dilation_layer_6_dilation_rate_4_filter_conv1d_convolution_Conv2D = tract_conv_hwc_1d(dilation_layer_6_dilation_rate_4_filter_conv1d_convolution_Conv2D_delay, dilation_layer_6_dilation_rate_4_filter_conv1d_convolution_Conv2D_weigths, dilation = [4], stride = [1], border = "constant", groups = 1, padding = [(0, 0)]);
  dilation_layer_6_dilation_rate_4_filter_conv1d_Tanh = tanh(dilation_layer_6_dilation_rate_4_filter_conv1d_convolution_Conv2D);
  dilation_layer_6_dilation_rate_4_gate_conv1d_convolution_Conv2D_weigths = variable<scalar>(label = "wavenet_2/dilation_layer_6-dilation_rate_4-gate-conv1d/convolution/Conv2D_weigths", shape = [64, 16, 3]);
  dilation_layer_6_dilation_rate_4_gate_conv1d_convolution_Conv2D = tract_conv_hwc_1d(dilation_layer_6_dilation_rate_4_filter_conv1d_convolution_Conv2D_delay, dilation_layer_6_dilation_rate_4_gate_conv1d_convolution_Conv2D_weigths, dilation = [4], stride = [1], border = "constant", groups = 1, padding = [(0, 0)]);
  dilation_layer_6_dilation_rate_4_gate_conv1d_Sigmoid = sigmoid(dilation_layer_6_dilation_rate_4_gate_conv1d_convolution_Conv2D);
  mul_6 = mul(dilation_layer_6_dilation_rate_4_filter_conv1d_Tanh, dilation_layer_6_dilation_rate_4_gate_conv1d_Sigmoid);
  dilation_layer_6_dilation_rate_4_1x1_conv_skip_conv1d_convolution_Conv2D_a = variable<scalar>(label = "wavenet_2/dilation_layer_6-dilation_rate_4-1x1_conv_skip-conv1d/convolution/Conv2D_a", shape = [64, 32]);
  dilation_layer_6_dilation_rate_4_1x1_conv_skip_conv1d_convolution_Conv2D = matmul(mul_6, dilation_layer_6_dilation_rate_4_1x1_conv_skip_conv1d_convolution_Conv2D_a, transposeA = false, transposeB = false);
  AddN_5 = add(AddN_4, dilation_layer_6_dilation_rate_4_1x1_conv_skip_conv1d_convolution_Conv2D);
  dilation_layer_6_dilation_rate_4_1x1_conv_transform_conv1d_convolution_Conv2D_a = variable<scalar>(label = "wavenet_2/dilation_layer_6-dilation_rate_4-1x1_conv_transform-conv1d/convolution/Conv2D_a", shape = [64, 16]);
  dilation_layer_6_dilation_rate_4_1x1_conv_transform_conv1d_convolution_Conv2D = matmul(mul_6, dilation_layer_6_dilation_rate_4_1x1_conv_transform_conv1d_convolution_Conv2D_a, transposeA = false, transposeB = false);
  add_6 = add(dilation_layer_6_dilation_rate_4_1x1_conv_transform_conv1d_convolution_Conv2D, add_5);
  dilation_layer_7_dilation_rate_8_filter_conv1d_convolution_Conv2D_delay = tract_pulse_delay(add_6, axis = 0, delay = 0, overlap = 16);
  dilation_layer_7_dilation_rate_8_filter_conv1d_convolution_Conv2D_weigths = variable<scalar>(label = "wavenet_2/dilation_layer_7-dilation_rate_8-filter-conv1d/convolution/Conv2D_weigths", shape = [64, 16, 3]);
  dilation_layer_7_dilation_rate_8_filter_conv1d_convolution_Conv2D = tract_conv_hwc_1d(dilation_layer_7_dilation_rate_8_filter_conv1d_convolution_Conv2D_delay, dilation_layer_7_dilation_rate_8_filter_conv1d_convolution_Conv2D_weigths, dilation = [8], stride = [1], border = "constant", groups = 1, padding = [(0, 0)]);
  dilation_layer_7_dilation_rate_8_filter_conv1d_Tanh = tanh(dilation_layer_7_dilation_rate_8_filter_conv1d_convolution_Conv2D);
  dilation_layer_7_dilation_rate_8_gate_conv1d_convolution_Conv2D_weigths = variable<scalar>(label = "wavenet_2/dilation_layer_7-dilation_rate_8-gate-conv1d/convolution/Conv2D_weigths", shape = [64, 16, 3]);
  dilation_layer_7_dilation_rate_8_gate_conv1d_convolution_Conv2D = tract_conv_hwc_1d(dilation_layer_7_dilation_rate_8_filter_conv1d_convolution_Conv2D_delay, dilation_layer_7_dilation_rate_8_gate_conv1d_convolution_Conv2D_weigths, dilation = [8], stride = [1], border = "constant", groups = 1, padding = [(0, 0)]);
  dilation_layer_7_dilation_rate_8_gate_conv1d_Sigmoid = sigmoid(dilation_layer_7_dilation_rate_8_gate_conv1d_convolution_Conv2D);
  mul_7 = mul(dilation_layer_7_dilation_rate_8_filter_conv1d_Tanh, dilation_layer_7_dilation_rate_8_gate_conv1d_Sigmoid);
  dilation_layer_7_dilation_rate_8_1x1_conv_skip_conv1d_convolution_Conv2D_a = variable<scalar>(label = "wavenet_2/dilation_layer_7-dilation_rate_8-1x1_conv_skip-conv1d/convolution/Conv2D_a", shape = [64, 32]);
  dilation_layer_7_dilation_rate_8_1x1_conv_skip_conv1d_convolution_Conv2D = matmul(mul_7, dilation_layer_7_dilation_rate_8_1x1_conv_skip_conv1d_convolution_Conv2D_a, transposeA = false, transposeB = false);
  AddN_6 = add(AddN_5, dilation_layer_7_dilation_rate_8_1x1_conv_skip_conv1d_convolution_Conv2D);
  dilation_layer_7_dilation_rate_8_1x1_conv_transform_conv1d_convolution_Conv2D_a = variable<scalar>(label = "wavenet_2/dilation_layer_7-dilation_rate_8-1x1_conv_transform-conv1d/convolution/Conv2D_a", shape = [64, 16]);
  dilation_layer_7_dilation_rate_8_1x1_conv_transform_conv1d_convolution_Conv2D = matmul(mul_7, dilation_layer_7_dilation_rate_8_1x1_conv_transform_conv1d_convolution_Conv2D_a, transposeA = false, transposeB = false);
  add_7 = add(dilation_layer_7_dilation_rate_8_1x1_conv_transform_conv1d_convolution_Conv2D, add_6);
  dilation_layer_8_dilation_rate_1_filter_conv1d_convolution_Conv2D_delay = tract_pulse_delay(add_7, axis = 0, delay = 0, overlap = 2);
  dilation_layer_8_dilation_rate_1_filter_conv1d_convolution_Conv2D_weigths = variable<scalar>(label = "wavenet_2/dilation_layer_8-dilation_rate_1-filter-conv1d/convolution/Conv2D_weigths", shape = [64, 16, 3]);
  dilation_layer_8_dilation_rate_1_filter_conv1d_convolution_Conv2D = tract_conv_hwc_1d(dilation_layer_8_dilation_rate_1_filter_conv1d_convolution_Conv2D_delay, dilation_layer_8_dilation_rate_1_filter_conv1d_convolution_Conv2D_weigths, dilation = [1], stride = [1], border = "constant", groups = 1, padding = [(0, 0)]);
  dilation_layer_8_dilation_rate_1_filter_conv1d_Tanh = tanh(dilation_layer_8_dilation_rate_1_filter_conv1d_convolution_Conv2D);
  dilation_layer_8_dilation_rate_1_gate_conv1d_convolution_Conv2D_weigths = variable<scalar>(label = "wavenet_2/dilation_layer_8-dilation_rate_1-gate-conv1d/convolution/Conv2D_weigths", shape = [64, 16, 3]);
  dilation_layer_8_dilation_rate_1_gate_conv1d_convolution_Conv2D = tract_conv_hwc_1d(dilation_layer_8_dilation_rate_1_filter_conv1d_convolution_Conv2D_delay, dilation_layer_8_dilation_rate_1_gate_conv1d_convolution_Conv2D_weigths, dilation = [1], stride = [1], border = "constant", groups = 1, padding = [(0, 0)]);
  dilation_layer_8_dilation_rate_1_gate_conv1d_Sigmoid = sigmoid(dilation_layer_8_dilation_rate_1_gate_conv1d_convolution_Conv2D);
  mul_8 = mul(dilation_layer_8_dilation_rate_1_filter_conv1d_Tanh, dilation_layer_8_dilation_rate_1_gate_conv1d_Sigmoid);
  dilation_layer_8_dilation_rate_1_1x1_conv_skip_conv1d_convolution_Conv2D_a = variable<scalar>(label = "wavenet_2/dilation_layer_8-dilation_rate_1-1x1_conv_skip-conv1d/convolution/Conv2D_a", shape = [64, 32]);
  dilation_layer_8_dilation_rate_1_1x1_conv_skip_conv1d_convolution_Conv2D = matmul(mul_8, dilation_layer_8_dilation_rate_1_1x1_conv_skip_conv1d_convolution_Conv2D_a, transposeA = false, transposeB = false);
  AddN_7 = add(AddN_6, dilation_layer_8_dilation_rate_1_1x1_conv_skip_conv1d_convolution_Conv2D);
  dilation_layer_8_dilation_rate_1_1x1_conv_transform_conv1d_convolution_Conv2D_a = variable<scalar>(label = "wavenet_2/dilation_layer_8-dilation_rate_1-1x1_conv_transform-conv1d/convolution/Conv2D_a", shape = [64, 16]);
  dilation_layer_8_dilation_rate_1_1x1_conv_transform_conv1d_convolution_Conv2D = matmul(mul_8, dilation_layer_8_dilation_rate_1_1x1_conv_transform_conv1d_convolution_Conv2D_a, transposeA = false, transposeB = false);
  add_8 = add(dilation_layer_8_dilation_rate_1_1x1_conv_transform_conv1d_convolution_Conv2D, add_7);
  dilation_layer_9_dilation_rate_2_filter_conv1d_convolution_Conv2D_delay = tract_pulse_delay(add_8, axis = 0, delay = 0, overlap = 4);
  dilation_layer_9_dilation_rate_2_filter_conv1d_convolution_Conv2D_weigths = variable<scalar>(label = "wavenet_2/dilation_layer_9-dilation_rate_2-filter-conv1d/convolution/Conv2D_weigths", shape = [64, 16, 3]);
  dilation_layer_9_dilation_rate_2_filter_conv1d_convolution_Conv2D = tract_conv_hwc_1d(dilation_layer_9_dilation_rate_2_filter_conv1d_convolution_Conv2D_delay, dilation_layer_9_dilation_rate_2_filter_conv1d_convolution_Conv2D_weigths, dilation = [2], stride = [1], border = "constant", groups = 1, padding = [(0, 0)]);
  dilation_layer_9_dilation_rate_2_filter_conv1d_Tanh = tanh(dilation_layer_9_dilation_rate_2_filter_conv1d_convolution_Conv2D);
  dilation_layer_9_dilation_rate_2_gate_conv1d_convolution_Conv2D_weigths = variable<scalar>(label = "wavenet_2/dilation_layer_9-dilation_rate_2-gate-conv1d/convolution/Conv2D_weigths", shape = [64, 16, 3]);
  dilation_layer_9_dilation_rate_2_gate_conv1d_convolution_Conv2D = tract_conv_hwc_1d(dilation_layer_9_dilation_rate_2_filter_conv1d_convolution_Conv2D_delay, dilation_layer_9_dilation_rate_2_gate_conv1d_convolution_Conv2D_weigths, dilation = [2], stride = [1], border = "constant", groups = 1, padding = [(0, 0)]);
  dilation_layer_9_dilation_rate_2_gate_conv1d_Sigmoid = sigmoid(dilation_layer_9_dilation_rate_2_gate_conv1d_convolution_Conv2D);
  mul_9 = mul(dilation_layer_9_dilation_rate_2_filter_conv1d_Tanh, dilation_layer_9_dilation_rate_2_gate_conv1d_Sigmoid);
  dilation_layer_9_dilation_rate_2_1x1_conv_skip_conv1d_convolution_Conv2D_a = variable<scalar>(label = "wavenet_2/dilation_layer_9-dilation_rate_2-1x1_conv_skip-conv1d/convolution/Conv2D_a", shape = [64, 32]);
  dilation_layer_9_dilation_rate_2_1x1_conv_skip_conv1d_convolution_Conv2D = matmul(mul_9, dilation_layer_9_dilation_rate_2_1x1_conv_skip_conv1d_convolution_Conv2D_a, transposeA = false, transposeB = false);
  AddN_8 = add(AddN_7, dilation_layer_9_dilation_rate_2_1x1_conv_skip_conv1d_convolution_Conv2D);
  dilation_layer_9_dilation_rate_2_1x1_conv_transform_conv1d_convolution_Conv2D_a = variable<scalar>(label = "wavenet_2/dilation_layer_9-dilation_rate_2-1x1_conv_transform-conv1d/convolution/Conv2D_a", shape = [64, 16]);
  dilation_layer_9_dilation_rate_2_1x1_conv_transform_conv1d_convolution_Conv2D = matmul(mul_9, dilation_layer_9_dilation_rate_2_1x1_conv_transform_conv1d_convolution_Conv2D_a, transposeA = false, transposeB = false);
  add_9 = add(dilation_layer_9_dilation_rate_2_1x1_conv_transform_conv1d_convolution_Conv2D, add_8);
  dilation_layer_10_dilation_rate_4_filter_conv1d_convolution_Conv2D_delay = tract_pulse_delay(add_9, axis = 0, delay = 0, overlap = 8);
  dilation_layer_10_dilation_rate_4_filter_conv1d_convolution_Conv2D_weigths = variable<scalar>(label = "wavenet_2/dilation_layer_10-dilation_rate_4-filter-conv1d/convolution/Conv2D_weigths", shape = [64, 16, 3]);
  dilation_layer_10_dilation_rate_4_filter_conv1d_convolution_Conv2D = tract_conv_hwc_1d(dilation_layer_10_dilation_rate_4_filter_conv1d_convolution_Conv2D_delay, dilation_layer_10_dilation_rate_4_filter_conv1d_convolution_Conv2D_weigths, dilation = [4], stride = [1], border = "constant", groups = 1, padding = [(0, 0)]);
  dilation_layer_10_dilation_rate_4_filter_conv1d_Tanh = tanh(dilation_layer_10_dilation_rate_4_filter_conv1d_convolution_Conv2D);
  dilation_layer_10_dilation_rate_4_gate_conv1d_convolution_Conv2D_weigths = variable<scalar>(label = "wavenet_2/dilation_layer_10-dilation_rate_4-gate-conv1d/convolution/Conv2D_weigths", shape = [64, 16, 3]);
  dilation_layer_10_dilation_rate_4_gate_conv1d_convolution_Conv2D = tract_conv_hwc_1d(dilation_layer_10_dilation_rate_4_filter_conv1d_convolution_Conv2D_delay, dilation_layer_10_dilation_rate_4_gate_conv1d_convolution_Conv2D_weigths, dilation = [4], stride = [1], border = "constant", groups = 1, padding = [(0, 0)]);
  dilation_layer_10_dilation_rate_4_gate_conv1d_Sigmoid = sigmoid(dilation_layer_10_dilation_rate_4_gate_conv1d_convolution_Conv2D);
  mul_10 = mul(dilation_layer_10_dilation_rate_4_filter_conv1d_Tanh, dilation_layer_10_dilation_rate_4_gate_conv1d_Sigmoid);
  dilation_layer_10_dilation_rate_4_1x1_conv_skip_conv1d_convolution_Conv2D_a = variable<scalar>(label = "wavenet_2/dilation_layer_10-dilation_rate_4-1x1_conv_skip-conv1d/convolution/Conv2D_a", shape = [64, 32]);
  dilation_layer_10_dilation_rate_4_1x1_conv_skip_conv1d_convolution_Conv2D = matmul(mul_10, dilation_layer_10_dilation_rate_4_1x1_conv_skip_conv1d_convolution_Conv2D_a, transposeA = false, transposeB = false);
  AddN_9 = add(AddN_8, dilation_layer_10_dilation_rate_4_1x1_conv_skip_conv1d_convolution_Conv2D);
  dilation_layer_10_dilation_rate_4_1x1_conv_transform_conv1d_convolution_Conv2D_a = variable<scalar>(label = "wavenet_2/dilation_layer_10-dilation_rate_4-1x1_conv_transform-conv1d/convolution/Conv2D_a", shape = [64, 16]);
  dilation_layer_10_dilation_rate_4_1x1_conv_transform_conv1d_convolution_Conv2D = matmul(mul_10, dilation_layer_10_dilation_rate_4_1x1_conv_transform_conv1d_convolution_Conv2D_a, transposeA = false, transposeB = false);
  add_10 = add(dilation_layer_10_dilation_rate_4_1x1_conv_transform_conv1d_convolution_Conv2D, add_9);
  dilation_layer_11_dilation_rate_8_filter_conv1d_convolution_Conv2D_delay = tract_pulse_delay(add_10, axis = 0, delay = 0, overlap = 16);
  dilation_layer_11_dilation_rate_8_filter_conv1d_convolution_Conv2D_weigths = variable<scalar>(label = "wavenet_2/dilation_layer_11-dilation_rate_8-filter-conv1d/convolution/Conv2D_weigths", shape = [64, 16, 3]);
  dilation_layer_11_dilation_rate_8_filter_conv1d_convolution_Conv2D = tract_conv_hwc_1d(dilation_layer_11_dilation_rate_8_filter_conv1d_convolution_Conv2D_delay, dilation_layer_11_dilation_rate_8_filter_conv1d_convolution_Conv2D_weigths, dilation = [8], stride = [1], border = "constant", groups = 1, padding = [(0, 0)]);
  dilation_layer_11_dilation_rate_8_filter_conv1d_Tanh = tanh(dilation_layer_11_dilation_rate_8_filter_conv1d_convolution_Conv2D);
  dilation_layer_11_dilation_rate_8_gate_conv1d_convolution_Conv2D_weigths = variable<scalar>(label = "wavenet_2/dilation_layer_11-dilation_rate_8-gate-conv1d/convolution/Conv2D_weigths", shape = [64, 16, 3]);
  dilation_layer_11_dilation_rate_8_gate_conv1d_convolution_Conv2D = tract_conv_hwc_1d(dilation_layer_11_dilation_rate_8_filter_conv1d_convolution_Conv2D_delay, dilation_layer_11_dilation_rate_8_gate_conv1d_convolution_Conv2D_weigths, dilation = [8], stride = [1], border = "constant", groups = 1, padding = [(0, 0)]);
  dilation_layer_11_dilation_rate_8_gate_conv1d_Sigmoid = sigmoid(dilation_layer_11_dilation_rate_8_gate_conv1d_convolution_Conv2D);
  mul_11 = mul(dilation_layer_11_dilation_rate_8_filter_conv1d_Tanh, dilation_layer_11_dilation_rate_8_gate_conv1d_Sigmoid);
  dilation_layer_11_dilation_rate_8_1x1_conv_skip_conv1d_convolution_Conv2D_a = variable<scalar>(label = "wavenet_2/dilation_layer_11-dilation_rate_8-1x1_conv_skip-conv1d/convolution/Conv2D_a", shape = [64, 32]);
  dilation_layer_11_dilation_rate_8_1x1_conv_skip_conv1d_convolution_Conv2D = matmul(mul_11, dilation_layer_11_dilation_rate_8_1x1_conv_skip_conv1d_convolution_Conv2D_a, transposeA = false, transposeB = false);
  AddN_10 = add(AddN_9, dilation_layer_11_dilation_rate_8_1x1_conv_skip_conv1d_convolution_Conv2D);
  dilation_layer_11_dilation_rate_8_1x1_conv_transform_conv1d_convolution_Conv2D_a = variable<scalar>(label = "wavenet_2/dilation_layer_11-dilation_rate_8-1x1_conv_transform-conv1d/convolution/Conv2D_a", shape = [64, 16]);
  dilation_layer_11_dilation_rate_8_1x1_conv_transform_conv1d_convolution_Conv2D = matmul(mul_11, dilation_layer_11_dilation_rate_8_1x1_conv_transform_conv1d_convolution_Conv2D_a, transposeA = false, transposeB = false);
  add_11 = add(dilation_layer_11_dilation_rate_8_1x1_conv_transform_conv1d_convolution_Conv2D, add_10);
  dilation_layer_12_dilation_rate_1_filter_conv1d_convolution_Conv2D_delay = tract_pulse_delay(add_11, axis = 0, delay = 0, overlap = 2);
  dilation_layer_12_dilation_rate_1_filter_conv1d_convolution_Conv2D_weigths = variable<scalar>(label = "wavenet_2/dilation_layer_12-dilation_rate_1-filter-conv1d/convolution/Conv2D_weigths", shape = [64, 16, 3]);
  dilation_layer_12_dilation_rate_1_filter_conv1d_convolution_Conv2D = tract_conv_hwc_1d(dilation_layer_12_dilation_rate_1_filter_conv1d_convolution_Conv2D_delay, dilation_layer_12_dilation_rate_1_filter_conv1d_convolution_Conv2D_weigths, dilation = [1], stride = [1], border = "constant", groups = 1, padding = [(0, 0)]);
  dilation_layer_12_dilation_rate_1_filter_conv1d_Tanh = tanh(dilation_layer_12_dilation_rate_1_filter_conv1d_convolution_Conv2D);
  dilation_layer_12_dilation_rate_1_gate_conv1d_convolution_Conv2D_weigths = variable<scalar>(label = "wavenet_2/dilation_layer_12-dilation_rate_1-gate-conv1d/convolution/Conv2D_weigths", shape = [64, 16, 3]);
  dilation_layer_12_dilation_rate_1_gate_conv1d_convolution_Conv2D = tract_conv_hwc_1d(dilation_layer_12_dilation_rate_1_filter_conv1d_convolution_Conv2D_delay, dilation_layer_12_dilation_rate_1_gate_conv1d_convolution_Conv2D_weigths, dilation = [1], stride = [1], border = "constant", groups = 1, padding = [(0, 0)]);
  dilation_layer_12_dilation_rate_1_gate_conv1d_Sigmoid = sigmoid(dilation_layer_12_dilation_rate_1_gate_conv1d_convolution_Conv2D);
  mul_12 = mul(dilation_layer_12_dilation_rate_1_filter_conv1d_Tanh, dilation_layer_12_dilation_rate_1_gate_conv1d_Sigmoid);
  dilation_layer_12_dilation_rate_1_1x1_conv_skip_conv1d_convolution_Conv2D_a = variable<scalar>(label = "wavenet_2/dilation_layer_12-dilation_rate_1-1x1_conv_skip-conv1d/convolution/Conv2D_a", shape = [64, 32]);
  dilation_layer_12_dilation_rate_1_1x1_conv_skip_conv1d_convolution_Conv2D = matmul(mul_12, dilation_layer_12_dilation_rate_1_1x1_conv_skip_conv1d_convolution_Conv2D_a, transposeA = false, transposeB = false);
  AddN_11 = add(AddN_10, dilation_layer_12_dilation_rate_1_1x1_conv_skip_conv1d_convolution_Conv2D);
  dilation_layer_12_dilation_rate_1_1x1_conv_transform_conv1d_convolution_Conv2D_a = variable<scalar>(label = "wavenet_2/dilation_layer_12-dilation_rate_1-1x1_conv_transform-conv1d/convolution/Conv2D_a", shape = [64, 16]);
  dilation_layer_12_dilation_rate_1_1x1_conv_transform_conv1d_convolution_Conv2D = matmul(mul_12, dilation_layer_12_dilation_rate_1_1x1_conv_transform_conv1d_convolution_Conv2D_a, transposeA = false, transposeB = false);
  add_12 = add(dilation_layer_12_dilation_rate_1_1x1_conv_transform_conv1d_convolution_Conv2D, add_11);
  dilation_layer_13_dilation_rate_2_filter_conv1d_convolution_Conv2D_delay = tract_pulse_delay(add_12, axis = 0, delay = 0, overlap = 4);
  dilation_layer_13_dilation_rate_2_filter_conv1d_convolution_Conv2D_weigths = variable<scalar>(label = "wavenet_2/dilation_layer_13-dilation_rate_2-filter-conv1d/convolution/Conv2D_weigths", shape = [64, 16, 3]);
  dilation_layer_13_dilation_rate_2_filter_conv1d_convolution_Conv2D = tract_conv_hwc_1d(dilation_layer_13_dilation_rate_2_filter_conv1d_convolution_Conv2D_delay, dilation_layer_13_dilation_rate_2_filter_conv1d_convolution_Conv2D_weigths, dilation = [2], stride = [1], border = "constant", groups = 1, padding = [(0, 0)]);
  dilation_layer_13_dilation_rate_2_filter_conv1d_Tanh = tanh(dilation_layer_13_dilation_rate_2_filter_conv1d_convolution_Conv2D);
  dilation_layer_13_dilation_rate_2_gate_conv1d_convolution_Conv2D_weigths = variable<scalar>(label = "wavenet_2/dilation_layer_13-dilation_rate_2-gate-conv1d/convolution/Conv2D_weigths", shape = [64, 16, 3]);
  dilation_layer_13_dilation_rate_2_gate_conv1d_convolution_Conv2D = tract_conv_hwc_1d(dilation_layer_13_dilation_rate_2_filter_conv1d_convolution_Conv2D_delay, dilation_layer_13_dilation_rate_2_gate_conv1d_convolution_Conv2D_weigths, dilation = [2], stride = [1], border = "constant", groups = 1, padding = [(0, 0)]);
  dilation_layer_13_dilation_rate_2_gate_conv1d_Sigmoid = sigmoid(dilation_layer_13_dilation_rate_2_gate_conv1d_convolution_Conv2D);
  mul_13 = mul(dilation_layer_13_dilation_rate_2_filter_conv1d_Tanh, dilation_layer_13_dilation_rate_2_gate_conv1d_Sigmoid);
  dilation_layer_13_dilation_rate_2_1x1_conv_skip_conv1d_convolution_Conv2D_a = variable<scalar>(label = "wavenet_2/dilation_layer_13-dilation_rate_2-1x1_conv_skip-conv1d/convolution/Conv2D_a", shape = [64, 32]);
  dilation_layer_13_dilation_rate_2_1x1_conv_skip_conv1d_convolution_Conv2D = matmul(mul_13, dilation_layer_13_dilation_rate_2_1x1_conv_skip_conv1d_convolution_Conv2D_a, transposeA = false, transposeB = false);
  AddN_12 = add(AddN_11, dilation_layer_13_dilation_rate_2_1x1_conv_skip_conv1d_convolution_Conv2D);
  dilation_layer_13_dilation_rate_2_1x1_conv_transform_conv1d_convolution_Conv2D_a = variable<scalar>(label = "wavenet_2/dilation_layer_13-dilation_rate_2-1x1_conv_transform-conv1d/convolution/Conv2D_a", shape = [64, 16]);
  dilation_layer_13_dilation_rate_2_1x1_conv_transform_conv1d_convolution_Conv2D = matmul(mul_13, dilation_layer_13_dilation_rate_2_1x1_conv_transform_conv1d_convolution_Conv2D_a, transposeA = false, transposeB = false);
  add_13 = add(dilation_layer_13_dilation_rate_2_1x1_conv_transform_conv1d_convolution_Conv2D, add_12);
  dilation_layer_14_dilation_rate_4_filter_conv1d_convolution_Conv2D_delay = tract_pulse_delay(add_13, axis = 0, delay = 0, overlap = 8);
  dilation_layer_14_dilation_rate_4_filter_conv1d_convolution_Conv2D_weigths = variable<scalar>(label = "wavenet_2/dilation_layer_14-dilation_rate_4-filter-conv1d/convolution/Conv2D_weigths", shape = [64, 16, 3]);
  dilation_layer_14_dilation_rate_4_filter_conv1d_convolution_Conv2D = tract_conv_hwc_1d(dilation_layer_14_dilation_rate_4_filter_conv1d_convolution_Conv2D_delay, dilation_layer_14_dilation_rate_4_filter_conv1d_convolution_Conv2D_weigths, dilation = [4], stride = [1], border = "constant", groups = 1, padding = [(0, 0)]);
  dilation_layer_14_dilation_rate_4_filter_conv1d_Tanh = tanh(dilation_layer_14_dilation_rate_4_filter_conv1d_convolution_Conv2D);
  dilation_layer_14_dilation_rate_4_gate_conv1d_convolution_Conv2D_weigths = variable<scalar>(label = "wavenet_2/dilation_layer_14-dilation_rate_4-gate-conv1d/convolution/Conv2D_weigths", shape = [64, 16, 3]);
  dilation_layer_14_dilation_rate_4_gate_conv1d_convolution_Conv2D = tract_conv_hwc_1d(dilation_layer_14_dilation_rate_4_filter_conv1d_convolution_Conv2D_delay, dilation_layer_14_dilation_rate_4_gate_conv1d_convolution_Conv2D_weigths, dilation = [4], stride = [1], border = "constant", groups = 1, padding = [(0, 0)]);
  dilation_layer_14_dilation_rate_4_gate_conv1d_Sigmoid = sigmoid(dilation_layer_14_dilation_rate_4_gate_conv1d_convolution_Conv2D);
  mul_14 = mul(dilation_layer_14_dilation_rate_4_filter_conv1d_Tanh, dilation_layer_14_dilation_rate_4_gate_conv1d_Sigmoid);
  dilation_layer_14_dilation_rate_4_1x1_conv_skip_conv1d_convolution_Conv2D_a = variable<scalar>(label = "wavenet_2/dilation_layer_14-dilation_rate_4-1x1_conv_skip-conv1d/convolution/Conv2D_a", shape = [64, 32]);
  dilation_layer_14_dilation_rate_4_1x1_conv_skip_conv1d_convolution_Conv2D = matmul(mul_14, dilation_layer_14_dilation_rate_4_1x1_conv_skip_conv1d_convolution_Conv2D_a, transposeA = false, transposeB = false);
  AddN_13 = add(AddN_12, dilation_layer_14_dilation_rate_4_1x1_conv_skip_conv1d_convolution_Conv2D);
  dilation_layer_14_dilation_rate_4_1x1_conv_transform_conv1d_convolution_Conv2D_a = variable<scalar>(label = "wavenet_2/dilation_layer_14-dilation_rate_4-1x1_conv_transform-conv1d/convolution/Conv2D_a", shape = [64, 16]);
  dilation_layer_14_dilation_rate_4_1x1_conv_transform_conv1d_convolution_Conv2D = matmul(mul_14, dilation_layer_14_dilation_rate_4_1x1_conv_transform_conv1d_convolution_Conv2D_a, transposeA = false, transposeB = false);
  add_14 = add(dilation_layer_14_dilation_rate_4_1x1_conv_transform_conv1d_convolution_Conv2D, add_13);
  dilation_layer_15_dilation_rate_8_filter_conv1d_convolution_Conv2D_delay = tract_pulse_delay(add_14, axis = 0, delay = 0, overlap = 16);
  dilation_layer_15_dilation_rate_8_filter_conv1d_convolution_Conv2D_weigths = variable<scalar>(label = "wavenet_2/dilation_layer_15-dilation_rate_8-filter-conv1d/convolution/Conv2D_weigths", shape = [64, 16, 3]);
  dilation_layer_15_dilation_rate_8_filter_conv1d_convolution_Conv2D = tract_conv_hwc_1d(dilation_layer_15_dilation_rate_8_filter_conv1d_convolution_Conv2D_delay, dilation_layer_15_dilation_rate_8_filter_conv1d_convolution_Conv2D_weigths, dilation = [8], stride = [1], border = "constant", groups = 1, padding = [(0, 0)]);
  dilation_layer_15_dilation_rate_8_filter_conv1d_Tanh = tanh(dilation_layer_15_dilation_rate_8_filter_conv1d_convolution_Conv2D);
  dilation_layer_15_dilation_rate_8_gate_conv1d_convolution_Conv2D_weigths = variable<scalar>(label = "wavenet_2/dilation_layer_15-dilation_rate_8-gate-conv1d/convolution/Conv2D_weigths", shape = [64, 16, 3]);
  dilation_layer_15_dilation_rate_8_gate_conv1d_convolution_Conv2D = tract_conv_hwc_1d(dilation_layer_15_dilation_rate_8_filter_conv1d_convolution_Conv2D_delay, dilation_layer_15_dilation_rate_8_gate_conv1d_convolution_Conv2D_weigths, dilation = [8], stride = [1], border = "constant", groups = 1, padding = [(0, 0)]);
  dilation_layer_15_dilation_rate_8_gate_conv1d_Sigmoid = sigmoid(dilation_layer_15_dilation_rate_8_gate_conv1d_convolution_Conv2D);
  mul_15 = mul(dilation_layer_15_dilation_rate_8_filter_conv1d_Tanh, dilation_layer_15_dilation_rate_8_gate_conv1d_Sigmoid);
  dilation_layer_15_dilation_rate_8_1x1_conv_skip_conv1d_convolution_Conv2D_a = variable<scalar>(label = "wavenet_2/dilation_layer_15-dilation_rate_8-1x1_conv_skip-conv1d/convolution/Conv2D_a", shape = [64, 32]);
  dilation_layer_15_dilation_rate_8_1x1_conv_skip_conv1d_convolution_Conv2D = matmul(mul_15, dilation_layer_15_dilation_rate_8_1x1_conv_skip_conv1d_convolution_Conv2D_a, transposeA = false, transposeB = false);
  AddN_14 = add(AddN_13, dilation_layer_15_dilation_rate_8_1x1_conv_skip_conv1d_convolution_Conv2D);
  dilation_layer_15_dilation_rate_8_1x1_conv_transform_conv1d_convolution_Conv2D_a = variable<scalar>(label = "wavenet_2/dilation_layer_15-dilation_rate_8-1x1_conv_transform-conv1d/convolution/Conv2D_a", shape = [64, 16]);
  dilation_layer_15_dilation_rate_8_1x1_conv_transform_conv1d_convolution_Conv2D = matmul(mul_15, dilation_layer_15_dilation_rate_8_1x1_conv_transform_conv1d_convolution_Conv2D_a, transposeA = false, transposeB = false);
  add_15 = add(dilation_layer_15_dilation_rate_8_1x1_conv_transform_conv1d_convolution_Conv2D, add_14);
  dilation_layer_16_dilation_rate_1_filter_conv1d_convolution_Conv2D_delay = tract_pulse_delay(add_15, axis = 0, delay = 0, overlap = 2);
  dilation_layer_16_dilation_rate_1_filter_conv1d_convolution_Conv2D_weigths = variable<scalar>(label = "wavenet_2/dilation_layer_16-dilation_rate_1-filter-conv1d/convolution/Conv2D_weigths", shape = [64, 16, 3]);
  dilation_layer_16_dilation_rate_1_filter_conv1d_convolution_Conv2D = tract_conv_hwc_1d(dilation_layer_16_dilation_rate_1_filter_conv1d_convolution_Conv2D_delay, dilation_layer_16_dilation_rate_1_filter_conv1d_convolution_Conv2D_weigths, dilation = [1], stride = [1], border = "constant", groups = 1, padding = [(0, 0)]);
  dilation_layer_16_dilation_rate_1_filter_conv1d_Tanh = tanh(dilation_layer_16_dilation_rate_1_filter_conv1d_convolution_Conv2D);
  dilation_layer_16_dilation_rate_1_gate_conv1d_convolution_Conv2D_weigths = variable<scalar>(label = "wavenet_2/dilation_layer_16-dilation_rate_1-gate-conv1d/convolution/Conv2D_weigths", shape = [64, 16, 3]);
  dilation_layer_16_dilation_rate_1_gate_conv1d_convolution_Conv2D = tract_conv_hwc_1d(dilation_layer_16_dilation_rate_1_filter_conv1d_convolution_Conv2D_delay, dilation_layer_16_dilation_rate_1_gate_conv1d_convolution_Conv2D_weigths, dilation = [1], stride = [1], border = "constant", groups = 1, padding = [(0, 0)]);
  dilation_layer_16_dilation_rate_1_gate_conv1d_Sigmoid = sigmoid(dilation_layer_16_dilation_rate_1_gate_conv1d_convolution_Conv2D);
  mul_16 = mul(dilation_layer_16_dilation_rate_1_filter_conv1d_Tanh, dilation_layer_16_dilation_rate_1_gate_conv1d_Sigmoid);
  dilation_layer_16_dilation_rate_1_1x1_conv_skip_conv1d_convolution_Conv2D_a = variable<scalar>(label = "wavenet_2/dilation_layer_16-dilation_rate_1-1x1_conv_skip-conv1d/convolution/Conv2D_a", shape = [64, 32]);
  dilation_layer_16_dilation_rate_1_1x1_conv_skip_conv1d_convolution_Conv2D = matmul(mul_16, dilation_layer_16_dilation_rate_1_1x1_conv_skip_conv1d_convolution_Conv2D_a, transposeA = false, transposeB = false);
  AddN_15 = add(AddN_14, dilation_layer_16_dilation_rate_1_1x1_conv_skip_conv1d_convolution_Conv2D);
  dilation_layer_16_dilation_rate_1_1x1_conv_transform_conv1d_convolution_Conv2D_a = variable<scalar>(label = "wavenet_2/dilation_layer_16-dilation_rate_1-1x1_conv_transform-conv1d/convolution/Conv2D_a", shape = [64, 16]);
  dilation_layer_16_dilation_rate_1_1x1_conv_transform_conv1d_convolution_Conv2D = matmul(mul_16, dilation_layer_16_dilation_rate_1_1x1_conv_transform_conv1d_convolution_Conv2D_a, transposeA = false, transposeB = false);
  add_16 = add(dilation_layer_16_dilation_rate_1_1x1_conv_transform_conv1d_convolution_Conv2D, add_15);
  dilation_layer_17_dilation_rate_2_filter_conv1d_convolution_Conv2D_delay = tract_pulse_delay(add_16, axis = 0, delay = 0, overlap = 4);
  dilation_layer_17_dilation_rate_2_filter_conv1d_convolution_Conv2D_weigths = variable<scalar>(label = "wavenet_2/dilation_layer_17-dilation_rate_2-filter-conv1d/convolution/Conv2D_weigths", shape = [64, 16, 3]);
  dilation_layer_17_dilation_rate_2_filter_conv1d_convolution_Conv2D = tract_conv_hwc_1d(dilation_layer_17_dilation_rate_2_filter_conv1d_convolution_Conv2D_delay, dilation_layer_17_dilation_rate_2_filter_conv1d_convolution_Conv2D_weigths, dilation = [2], stride = [1], border = "constant", groups = 1, padding = [(0, 0)]);
  dilation_layer_17_dilation_rate_2_filter_conv1d_Tanh = tanh(dilation_layer_17_dilation_rate_2_filter_conv1d_convolution_Conv2D);
  dilation_layer_17_dilation_rate_2_gate_conv1d_convolution_Conv2D_weigths = variable<scalar>(label = "wavenet_2/dilation_layer_17-dilation_rate_2-gate-conv1d/convolution/Conv2D_weigths", shape = [64, 16, 3]);
  dilation_layer_17_dilation_rate_2_gate_conv1d_convolution_Conv2D = tract_conv_hwc_1d(dilation_layer_17_dilation_rate_2_filter_conv1d_convolution_Conv2D_delay, dilation_layer_17_dilation_rate_2_gate_conv1d_convolution_Conv2D_weigths, dilation = [2], stride = [1], border = "constant", groups = 1, padding = [(0, 0)]);
  dilation_layer_17_dilation_rate_2_gate_conv1d_Sigmoid = sigmoid(dilation_layer_17_dilation_rate_2_gate_conv1d_convolution_Conv2D);
  mul_17 = mul(dilation_layer_17_dilation_rate_2_filter_conv1d_Tanh, dilation_layer_17_dilation_rate_2_gate_conv1d_Sigmoid);
  dilation_layer_17_dilation_rate_2_1x1_conv_skip_conv1d_convolution_Conv2D_a = variable<scalar>(label = "wavenet_2/dilation_layer_17-dilation_rate_2-1x1_conv_skip-conv1d/convolution/Conv2D_a", shape = [64, 32]);
  dilation_layer_17_dilation_rate_2_1x1_conv_skip_conv1d_convolution_Conv2D = matmul(mul_17, dilation_layer_17_dilation_rate_2_1x1_conv_skip_conv1d_convolution_Conv2D_a, transposeA = false, transposeB = false);
  AddN_16 = add(AddN_15, dilation_layer_17_dilation_rate_2_1x1_conv_skip_conv1d_convolution_Conv2D);
  dilation_layer_17_dilation_rate_2_1x1_conv_transform_conv1d_convolution_Conv2D_a = variable<scalar>(label = "wavenet_2/dilation_layer_17-dilation_rate_2-1x1_conv_transform-conv1d/convolution/Conv2D_a", shape = [64, 16]);
  dilation_layer_17_dilation_rate_2_1x1_conv_transform_conv1d_convolution_Conv2D = matmul(mul_17, dilation_layer_17_dilation_rate_2_1x1_conv_transform_conv1d_convolution_Conv2D_a, transposeA = false, transposeB = false);
  add_17 = add(dilation_layer_17_dilation_rate_2_1x1_conv_transform_conv1d_convolution_Conv2D, add_16);
  dilation_layer_18_dilation_rate_4_filter_conv1d_convolution_Conv2D_delay = tract_pulse_delay(add_17, axis = 0, delay = 0, overlap = 8);
  dilation_layer_18_dilation_rate_4_filter_conv1d_convolution_Conv2D_weigths = variable<scalar>(label = "wavenet_2/dilation_layer_18-dilation_rate_4-filter-conv1d/convolution/Conv2D_weigths", shape = [64, 16, 3]);
  dilation_layer_18_dilation_rate_4_filter_conv1d_convolution_Conv2D = tract_conv_hwc_1d(dilation_layer_18_dilation_rate_4_filter_conv1d_convolution_Conv2D_delay, dilation_layer_18_dilation_rate_4_filter_conv1d_convolution_Conv2D_weigths, dilation = [4], stride = [1], border = "constant", groups = 1, padding = [(0, 0)]);
  dilation_layer_18_dilation_rate_4_filter_conv1d_Tanh = tanh(dilation_layer_18_dilation_rate_4_filter_conv1d_convolution_Conv2D);
  dilation_layer_18_dilation_rate_4_gate_conv1d_convolution_Conv2D_weigths = variable<scalar>(label = "wavenet_2/dilation_layer_18-dilation_rate_4-gate-conv1d/convolution/Conv2D_weigths", shape = [64, 16, 3]);
  dilation_layer_18_dilation_rate_4_gate_conv1d_convolution_Conv2D = tract_conv_hwc_1d(dilation_layer_18_dilation_rate_4_filter_conv1d_convolution_Conv2D_delay, dilation_layer_18_dilation_rate_4_gate_conv1d_convolution_Conv2D_weigths, dilation = [4], stride = [1], border = "constant", groups = 1, padding = [(0, 0)]);
  dilation_layer_18_dilation_rate_4_gate_conv1d_Sigmoid = sigmoid(dilation_layer_18_dilation_rate_4_gate_conv1d_convolution_Conv2D);
  mul_18 = mul(dilation_layer_18_dilation_rate_4_filter_conv1d_Tanh, dilation_layer_18_dilation_rate_4_gate_conv1d_Sigmoid);
  dilation_layer_18_dilation_rate_4_1x1_conv_skip_conv1d_convolution_Conv2D_a = variable<scalar>(label = "wavenet_2/dilation_layer_18-dilation_rate_4-1x1_conv_skip-conv1d/convolution/Conv2D_a", shape = [64, 32]);
  dilation_layer_18_dilation_rate_4_1x1_conv_skip_conv1d_convolution_Conv2D = matmul(mul_18, dilation_layer_18_dilation_rate_4_1x1_conv_skip_conv1d_convolution_Conv2D_a, transposeA = false, transposeB = false);
  AddN_17 = add(AddN_16, dilation_layer_18_dilation_rate_4_1x1_conv_skip_conv1d_convolution_Conv2D);
  dilation_layer_18_dilation_rate_4_1x1_conv_transform_conv1d_convolution_Conv2D_a = variable<scalar>(label = "wavenet_2/dilation_layer_18-dilation_rate_4-1x1_conv_transform-conv1d/convolution/Conv2D_a", shape = [64, 16]);
  dilation_layer_18_dilation_rate_4_1x1_conv_transform_conv1d_convolution_Conv2D = matmul(mul_18, dilation_layer_18_dilation_rate_4_1x1_conv_transform_conv1d_convolution_Conv2D_a, transposeA = false, transposeB = false);
  add_18 = add(dilation_layer_18_dilation_rate_4_1x1_conv_transform_conv1d_convolution_Conv2D, add_17);
  dilation_layer_19_dilation_rate_8_filter_conv1d_convolution_Conv2D_delay = tract_pulse_delay(add_18, axis = 0, delay = 0, overlap = 16);
  dilation_layer_19_dilation_rate_8_filter_conv1d_convolution_Conv2D_weigths = variable<scalar>(label = "wavenet_2/dilation_layer_19-dilation_rate_8-filter-conv1d/convolution/Conv2D_weigths", shape = [64, 16, 3]);
  dilation_layer_19_dilation_rate_8_filter_conv1d_convolution_Conv2D = tract_conv_hwc_1d(dilation_layer_19_dilation_rate_8_filter_conv1d_convolution_Conv2D_delay, dilation_layer_19_dilation_rate_8_filter_conv1d_convolution_Conv2D_weigths, dilation = [8], stride = [1], border = "constant", groups = 1, padding = [(0, 0)]);
  dilation_layer_19_dilation_rate_8_filter_conv1d_Tanh = tanh(dilation_layer_19_dilation_rate_8_filter_conv1d_convolution_Conv2D);
  dilation_layer_19_dilation_rate_8_gate_conv1d_convolution_Conv2D_weigths = variable<scalar>(label = "wavenet_2/dilation_layer_19-dilation_rate_8-gate-conv1d/convolution/Conv2D_weigths", shape = [64, 16, 3]);
  dilation_layer_19_dilation_rate_8_gate_conv1d_convolution_Conv2D = tract_conv_hwc_1d(dilation_layer_19_dilation_rate_8_filter_conv1d_convolution_Conv2D_delay, dilation_layer_19_dilation_rate_8_gate_conv1d_convolution_Conv2D_weigths, dilation = [8], stride = [1], border = "constant", groups = 1, padding = [(0, 0)]);
  dilation_layer_19_dilation_rate_8_gate_conv1d_Sigmoid = sigmoid(dilation_layer_19_dilation_rate_8_gate_conv1d_convolution_Conv2D);
  mul_19 = mul(dilation_layer_19_dilation_rate_8_filter_conv1d_Tanh, dilation_layer_19_dilation_rate_8_gate_conv1d_Sigmoid);
  dilation_layer_19_dilation_rate_8_1x1_conv_skip_conv1d_convolution_Conv2D_a = variable<scalar>(label = "wavenet_2/dilation_layer_19-dilation_rate_8-1x1_conv_skip-conv1d/convolution/Conv2D_a", shape = [64, 32]);
  dilation_layer_19_dilation_rate_8_1x1_conv_skip_conv1d_convolution_Conv2D = matmul(mul_19, dilation_layer_19_dilation_rate_8_1x1_conv_skip_conv1d_convolution_Conv2D_a, transposeA = false, transposeB = false);
  AddN_18 = add(AddN_17, dilation_layer_19_dilation_rate_8_1x1_conv_skip_conv1d_convolution_Conv2D);
  dilation_layer_19_dilation_rate_8_1x1_conv_transform_conv1d_convolution_Conv2D_a = variable<scalar>(label = "wavenet_2/dilation_layer_19-dilation_rate_8-1x1_conv_transform-conv1d/convolution/Conv2D_a", shape = [64, 16]);
  dilation_layer_19_dilation_rate_8_1x1_conv_transform_conv1d_convolution_Conv2D = matmul(mul_19, dilation_layer_19_dilation_rate_8_1x1_conv_transform_conv1d_convolution_Conv2D_a, transposeA = false, transposeB = false);
  add_19 = add(dilation_layer_19_dilation_rate_8_1x1_conv_transform_conv1d_convolution_Conv2D, add_18);
  dilation_layer_20_dilation_rate_1_filter_conv1d_convolution_Conv2D_delay = tract_pulse_delay(add_19, axis = 0, delay = 0, overlap = 2);
  dilation_layer_20_dilation_rate_1_filter_conv1d_convolution_Conv2D_weigths = variable<scalar>(label = "wavenet_2/dilation_layer_20-dilation_rate_1-filter-conv1d/convolution/Conv2D_weigths", shape = [64, 16, 3]);
  dilation_layer_20_dilation_rate_1_filter_conv1d_convolution_Conv2D = tract_conv_hwc_1d(dilation_layer_20_dilation_rate_1_filter_conv1d_convolution_Conv2D_delay, dilation_layer_20_dilation_rate_1_filter_conv1d_convolution_Conv2D_weigths, dilation = [1], stride = [1], border = "constant", groups = 1, padding = [(0, 0)]);
  dilation_layer_20_dilation_rate_1_filter_conv1d_Tanh = tanh(dilation_layer_20_dilation_rate_1_filter_conv1d_convolution_Conv2D);
  dilation_layer_20_dilation_rate_1_gate_conv1d_convolution_Conv2D_weigths = variable<scalar>(label = "wavenet_2/dilation_layer_20-dilation_rate_1-gate-conv1d/convolution/Conv2D_weigths", shape = [64, 16, 3]);
  dilation_layer_20_dilation_rate_1_gate_conv1d_convolution_Conv2D = tract_conv_hwc_1d(dilation_layer_20_dilation_rate_1_filter_conv1d_convolution_Conv2D_delay, dilation_layer_20_dilation_rate_1_gate_conv1d_convolution_Conv2D_weigths, dilation = [1], stride = [1], border = "constant", groups = 1, padding = [(0, 0)]);
  dilation_layer_20_dilation_rate_1_gate_conv1d_Sigmoid = sigmoid(dilation_layer_20_dilation_rate_1_gate_conv1d_convolution_Conv2D);
  mul_20 = mul(dilation_layer_20_dilation_rate_1_filter_conv1d_Tanh, dilation_layer_20_dilation_rate_1_gate_conv1d_Sigmoid);
  dilation_layer_20_dilation_rate_1_1x1_conv_skip_conv1d_convolution_Conv2D_a = variable<scalar>(label = "wavenet_2/dilation_layer_20-dilation_rate_1-1x1_conv_skip-conv1d/convolution/Conv2D_a", shape = [64, 32]);
  dilation_layer_20_dilation_rate_1_1x1_conv_skip_conv1d_convolution_Conv2D = matmul(mul_20, dilation_layer_20_dilation_rate_1_1x1_conv_skip_conv1d_convolution_Conv2D_a, transposeA = false, transposeB = false);
  AddN_19 = add(AddN_18, dilation_layer_20_dilation_rate_1_1x1_conv_skip_conv1d_convolution_Conv2D);
  dilation_layer_20_dilation_rate_1_1x1_conv_transform_conv1d_convolution_Conv2D_a = variable<scalar>(label = "wavenet_2/dilation_layer_20-dilation_rate_1-1x1_conv_transform-conv1d/convolution/Conv2D_a", shape = [64, 16]);
  dilation_layer_20_dilation_rate_1_1x1_conv_transform_conv1d_convolution_Conv2D = matmul(mul_20, dilation_layer_20_dilation_rate_1_1x1_conv_transform_conv1d_convolution_Conv2D_a, transposeA = false, transposeB = false);
  add_20 = add(dilation_layer_20_dilation_rate_1_1x1_conv_transform_conv1d_convolution_Conv2D, add_19);
  dilation_layer_21_dilation_rate_2_filter_conv1d_convolution_Conv2D_delay = tract_pulse_delay(add_20, axis = 0, delay = 0, overlap = 4);
  dilation_layer_21_dilation_rate_2_filter_conv1d_convolution_Conv2D_weigths = variable<scalar>(label = "wavenet_2/dilation_layer_21-dilation_rate_2-filter-conv1d/convolution/Conv2D_weigths", shape = [64, 16, 3]);
  dilation_layer_21_dilation_rate_2_filter_conv1d_convolution_Conv2D = tract_conv_hwc_1d(dilation_layer_21_dilation_rate_2_filter_conv1d_convolution_Conv2D_delay, dilation_layer_21_dilation_rate_2_filter_conv1d_convolution_Conv2D_weigths, dilation = [2], stride = [1], border = "constant", groups = 1, padding = [(0, 0)]);
  dilation_layer_21_dilation_rate_2_filter_conv1d_Tanh = tanh(dilation_layer_21_dilation_rate_2_filter_conv1d_convolution_Conv2D);
  dilation_layer_21_dilation_rate_2_gate_conv1d_convolution_Conv2D_weigths = variable<scalar>(label = "wavenet_2/dilation_layer_21-dilation_rate_2-gate-conv1d/convolution/Conv2D_weigths", shape = [64, 16, 3]);
  dilation_layer_21_dilation_rate_2_gate_conv1d_convolution_Conv2D = tract_conv_hwc_1d(dilation_layer_21_dilation_rate_2_filter_conv1d_convolution_Conv2D_delay, dilation_layer_21_dilation_rate_2_gate_conv1d_convolution_Conv2D_weigths, dilation = [2], stride = [1], border = "constant", groups = 1, padding = [(0, 0)]);
  dilation_layer_21_dilation_rate_2_gate_conv1d_Sigmoid = sigmoid(dilation_layer_21_dilation_rate_2_gate_conv1d_convolution_Conv2D);
  mul_21 = mul(dilation_layer_21_dilation_rate_2_filter_conv1d_Tanh, dilation_layer_21_dilation_rate_2_gate_conv1d_Sigmoid);
  dilation_layer_21_dilation_rate_2_1x1_conv_skip_conv1d_convolution_Conv2D_a = variable<scalar>(label = "wavenet_2/dilation_layer_21-dilation_rate_2-1x1_conv_skip-conv1d/convolution/Conv2D_a", shape = [64, 32]);
  dilation_layer_21_dilation_rate_2_1x1_conv_skip_conv1d_convolution_Conv2D = matmul(mul_21, dilation_layer_21_dilation_rate_2_1x1_conv_skip_conv1d_convolution_Conv2D_a, transposeA = false, transposeB = false);
  AddN_20 = add(AddN_19, dilation_layer_21_dilation_rate_2_1x1_conv_skip_conv1d_convolution_Conv2D);
  dilation_layer_21_dilation_rate_2_1x1_conv_transform_conv1d_convolution_Conv2D_a = variable<scalar>(label = "wavenet_2/dilation_layer_21-dilation_rate_2-1x1_conv_transform-conv1d/convolution/Conv2D_a", shape = [64, 16]);
  dilation_layer_21_dilation_rate_2_1x1_conv_transform_conv1d_convolution_Conv2D = matmul(mul_21, dilation_layer_21_dilation_rate_2_1x1_conv_transform_conv1d_convolution_Conv2D_a, transposeA = false, transposeB = false);
  add_21 = add(dilation_layer_21_dilation_rate_2_1x1_conv_transform_conv1d_convolution_Conv2D, add_20);
  dilation_layer_22_dilation_rate_4_filter_conv1d_convolution_Conv2D_delay = tract_pulse_delay(add_21, axis = 0, delay = 0, overlap = 8);
  dilation_layer_22_dilation_rate_4_filter_conv1d_convolution_Conv2D_weigths = variable<scalar>(label = "wavenet_2/dilation_layer_22-dilation_rate_4-filter-conv1d/convolution/Conv2D_weigths", shape = [64, 16, 3]);
  dilation_layer_22_dilation_rate_4_filter_conv1d_convolution_Conv2D = tract_conv_hwc_1d(dilation_layer_22_dilation_rate_4_filter_conv1d_convolution_Conv2D_delay, dilation_layer_22_dilation_rate_4_filter_conv1d_convolution_Conv2D_weigths, dilation = [4], stride = [1], border = "constant", groups = 1, padding = [(0, 0)]);
  dilation_layer_22_dilation_rate_4_filter_conv1d_Tanh = tanh(dilation_layer_22_dilation_rate_4_filter_conv1d_convolution_Conv2D);
  dilation_layer_22_dilation_rate_4_gate_conv1d_convolution_Conv2D_weigths = variable<scalar>(label = "wavenet_2/dilation_layer_22-dilation_rate_4-gate-conv1d/convolution/Conv2D_weigths", shape = [64, 16, 3]);
  dilation_layer_22_dilation_rate_4_gate_conv1d_convolution_Conv2D = tract_conv_hwc_1d(dilation_layer_22_dilation_rate_4_filter_conv1d_convolution_Conv2D_delay, dilation_layer_22_dilation_rate_4_gate_conv1d_convolution_Conv2D_weigths, dilation = [4], stride = [1], border = "constant", groups = 1, padding = [(0, 0)]);
  dilation_layer_22_dilation_rate_4_gate_conv1d_Sigmoid = sigmoid(dilation_layer_22_dilation_rate_4_gate_conv1d_convolution_Conv2D);
  mul_22 = mul(dilation_layer_22_dilation_rate_4_filter_conv1d_Tanh, dilation_layer_22_dilation_rate_4_gate_conv1d_Sigmoid);
  dilation_layer_22_dilation_rate_4_1x1_conv_skip_conv1d_convolution_Conv2D_a = variable<scalar>(label = "wavenet_2/dilation_layer_22-dilation_rate_4-1x1_conv_skip-conv1d/convolution/Conv2D_a", shape = [64, 32]);
  dilation_layer_22_dilation_rate_4_1x1_conv_skip_conv1d_convolution_Conv2D = matmul(mul_22, dilation_layer_22_dilation_rate_4_1x1_conv_skip_conv1d_convolution_Conv2D_a, transposeA = false, transposeB = false);
  AddN_21 = add(AddN_20, dilation_layer_22_dilation_rate_4_1x1_conv_skip_conv1d_convolution_Conv2D);
  dilation_layer_22_dilation_rate_4_1x1_conv_transform_conv1d_convolution_Conv2D_a = variable<scalar>(label = "wavenet_2/dilation_layer_22-dilation_rate_4-1x1_conv_transform-conv1d/convolution/Conv2D_a", shape = [64, 16]);
  dilation_layer_22_dilation_rate_4_1x1_conv_transform_conv1d_convolution_Conv2D = matmul(mul_22, dilation_layer_22_dilation_rate_4_1x1_conv_transform_conv1d_convolution_Conv2D_a, transposeA = false, transposeB = false);
  add_22 = add(dilation_layer_22_dilation_rate_4_1x1_conv_transform_conv1d_convolution_Conv2D, add_21);
  dilation_layer_23_dilation_rate_8_filter_conv1d_convolution_Conv2D_delay = tract_pulse_delay(add_22, axis = 0, delay = 0, overlap = 16);
  dilation_layer_23_dilation_rate_8_filter_conv1d_convolution_Conv2D_weigths = variable<scalar>(label = "wavenet_2/dilation_layer_23-dilation_rate_8-filter-conv1d/convolution/Conv2D_weigths", shape = [64, 16, 3]);
  dilation_layer_23_dilation_rate_8_filter_conv1d_convolution_Conv2D = tract_conv_hwc_1d(dilation_layer_23_dilation_rate_8_filter_conv1d_convolution_Conv2D_delay, dilation_layer_23_dilation_rate_8_filter_conv1d_convolution_Conv2D_weigths, dilation = [8], stride = [1], border = "constant", groups = 1, padding = [(0, 0)]);
  dilation_layer_23_dilation_rate_8_filter_conv1d_Tanh = tanh(dilation_layer_23_dilation_rate_8_filter_conv1d_convolution_Conv2D);
  dilation_layer_23_dilation_rate_8_gate_conv1d_convolution_Conv2D_weigths = variable<scalar>(label = "wavenet_2/dilation_layer_23-dilation_rate_8-gate-conv1d/convolution/Conv2D_weigths", shape = [64, 16, 3]);
  dilation_layer_23_dilation_rate_8_gate_conv1d_convolution_Conv2D = tract_conv_hwc_1d(dilation_layer_23_dilation_rate_8_filter_conv1d_convolution_Conv2D_delay, dilation_layer_23_dilation_rate_8_gate_conv1d_convolution_Conv2D_weigths, dilation = [8], stride = [1], border = "constant", groups = 1, padding = [(0, 0)]);
  dilation_layer_23_dilation_rate_8_gate_conv1d_Sigmoid = sigmoid(dilation_layer_23_dilation_rate_8_gate_conv1d_convolution_Conv2D);
  mul_23 = mul(dilation_layer_23_dilation_rate_8_filter_conv1d_Tanh, dilation_layer_23_dilation_rate_8_gate_conv1d_Sigmoid);
  dilation_layer_23_dilation_rate_8_1x1_conv_skip_conv1d_convolution_Conv2D_a = variable<scalar>(label = "wavenet_2/dilation_layer_23-dilation_rate_8-1x1_conv_skip-conv1d/convolution/Conv2D_a", shape = [64, 32]);
  dilation_layer_23_dilation_rate_8_1x1_conv_skip_conv1d_convolution_Conv2D = matmul(mul_23, dilation_layer_23_dilation_rate_8_1x1_conv_skip_conv1d_convolution_Conv2D_a, transposeA = false, transposeB = false);
  AddN_22 = add(AddN_21, dilation_layer_23_dilation_rate_8_1x1_conv_skip_conv1d_convolution_Conv2D);
  Relu_low = max(0.0, AddN_22);
  post_proc_1_1x1_conv_conv1d_convolution_Conv2D_a = variable<scalar>(label = "wavenet_2/post_proc_1-1x1_conv-conv1d/convolution/Conv2D_a", shape = [32, 32]);
  post_proc_1_1x1_conv_conv1d_convolution_Conv2D = matmul(Relu_low, post_proc_1_1x1_conv_conv1d_convolution_Conv2D_a, transposeA = false, transposeB = false);
  post_proc_1_1x1_conv_conv1d_Relu_low = max(0.0, post_proc_1_1x1_conv_conv1d_convolution_Conv2D);
  post_proc_2_1x1_conv_conv1d_convolution_Conv2D_a = variable<scalar>(label = "wavenet_2/post_proc_2-1x1_conv-conv1d/convolution/Conv2D_a", shape = [32, 2]);
  post_proc_2_1x1_conv_conv1d_convolution_Conv2D = matmul(post_proc_1_1x1_conv_conv1d_Relu_low, post_proc_2_1x1_conv_conv1d_convolution_Conv2D_a, transposeA = false, transposeB = false);
}
