version 1.0;

extension tract_registry tract_transformers;
extension tract_registry tract_core;

fragment tract_core_properties(
) -> (properties: (string, tensor<scalar>)[])
{
  properties = [
    ("tract_target_version", "0.23.2-pre"),
    ("torch_to_nnef_version", "0.24.0"),
    ("torch_version", "2.9.1"),
    ("transformers_version", "5.8.0"),
    ("os", "Darwin SNS009332 24.6.0 Darwin Kernel Version 24.6.0: Mon Jul 14 11:30:40 PDT 2025; root:xnu-11417.140.69~1/RELEASE_ARM64_T6041 arm64 Darwin"),
    ("hostname", "SNS009332"),
    ("user", "julien.balian"),
    ("py_version", "3.11.13 (main, Sep 18 2025, 19:53:58) [Clang 20.1.4 ] (64-bit runtime)"),
    ("export_date", "2026-06-23 14:24:11.387210"),
    ("exported_py_class", "Qwen3TinyMoE"),
    ("export_cmd", "/tmp/regen_moe_asset.py")
  ];
}







graph network(input_0) -> (output_0)
{
    input_0 = tract_core_external(shape = [1, 3, 16], datum_type = 'f32');
    moe_gate_weight = variable<scalar>(label = 'moe.gate.weight', shape = [4, 16]);
    output_0_w1 = variable<scalar>(label = 'output_0_w1', shape = [4, 16, 32]);
    output_0_w2 = variable<scalar>(label = 'output_0_w2', shape = [4, 32, 16]);
    output_0_w3 = variable<scalar>(label = 'output_0_w3', shape = [4, 16, 32]);
    output_0 = tract_moe_ffn(input_0, moe_gate_weight, output_0_w1, output_0_w2, output_0_w3, k = 2, activation = 'swiglu', gate = 'softmax_topk');
}
